task_2/checkpointsoverfit/model.pt (torch, 92376 bytes, 39 tensors)

model.0.weight f4 [32, 3, 3, 3]
000000 60 dc 62 3d d6 41 5b 3d 3a 07 d3 3d c3 71 d6 bd
       0.055385947 0.053529583 0.10304113 -0.10470917
000010 7a 76 e3 3d 4a 2f 16 3e c9 79 c5 bc 94 cf 3d 3d
       0.11106582 0.14666477 -0.024105923 0.04634054
000020 eb db 2a 3d 3d f5 0d 3e 5e 57 bc bc e7 79 47 bd
       0.041713636 0.13863082 -0.022990879 -0.04870024
000030 bd 18 d2 3d c8 bb 46 3c 6d 75 f6 bd 3a 08 0e bd
       0.10258625 0.0121297315 -0.12034116 -0.034675814
000040 b6 5d 5d 3d 2d 67 86 bd a7 a8 e3 bd 62 f1 05 bd
       0.054044448 -0.06562648 -0.11116152 -0.032700904
000050 ca 13 94 3a 6f d6 b5 bc 53 15 ce bd bb 1a f4 3d
       0.0011297402 -0.022196976 -0.10062661 0.11919161
000060 65 6d cb 3d 86 fc a5 bd 95 b1 54 3d 2b 3f 9c bc
       0.09932975 -0.08104806 0.051927168 -0.01907309
000070 39 77 e1 bd 8f fe 81 3d 8a fb 69 39 39 ad ca 3d
       -0.11009068 0.06347381 0.00022314317 0.09896321
000080 af 89 d0 bd 51 b4 6d bc db 9d 39 bd f8 1f 51 bd
       -0.10182511 -0.014508323 -0.04531656 -0.05105588
000090 90 c4 d2 3d b0 8c 68 bd 11 c6 df 3d d3 23 54 3c
       0.102913976 -0.056774795 0.1092645 0.012947994
0000a0 9c ff c8 3d 1e c2 25 bd fa 39 dc bb d2 43 ab bd
       0.098143786 -0.040468328 -0.0067207785 -0.08362545
0000b0 fc c9 8b bd 54 c4 21 3d ec c5 b6 bc cd 63 a8 3c
       -0.06825635 0.039493874 -0.022311173 0.020555401
0000c0 b8 17 02 bd e0 13 a0 3d 73 80 4f 3c 09 67 2f 3d
       -0.0317609 0.07816291 0.012664902 0.04282287
0000d0 de 7e 84 3d 44 ae b2 3d 02 67 d1 3a db 41 e5 bc
       0.064695105 0.08724645 0.0015976133 -0.027985504
0000e0 9e 37 0d 3e 7a 21 d6 bd 1b 3d 16 3e 7f aa 83 3d
       0.13790748 -0.10455604 0.14671747 0.06429004
0000f0 5a 55 d1 bb a6 b9 01 3e 36 9e 56 bc 7f ad 92 3d
       -0.0063883485 0.12668476 -0.013099244 0.07161998
000100 9e fb b2 bd aa ac fb bd e9 c5 b3 3c b8 29 90 bd
       -0.087393984 -0.122887924 0.021944957 -0.07039207
000110 b5 d8 fe 3d 72 9b e5 bd 72 e8 0c be 31 e7 36 bd
       0.12443677 -0.112112895 -0.13760546 -0.044654075
000120 43 65 f3 3d 25 24 6d bd f2 d7 d6 bd 27 62 ab 3d
       0.118845485 -0.0578958 -0.10490407 0.083683304
000130 67 58 c4 bd 39 5f a3 bd e6 4b 07 bd 1d 2b c8 3d
       -0.09587174 -0.07977147 -0.033031367 0.09773848
000140 c5 fd c9 3c 5f bc d6 3d f0 c9 34 3d 10 8c cc 3d
       0.02465714 0.10485148 0.044137895 0.09987652
000150 e4 b5 6b 3d 81 bc 86 bd 56 a9 b8 bd a3 01 11 3d
       0.05754651 -0.06578923 -0.09016673 0.03540195
000160 b9 c4 5a bd b0 fe f3 3d 25 1d e0 3d 70 73 c4 bd
       -0.053410266 0.11913812 0.10943059 -0.095923305
000170 b1 06 fb bd 73 0f f7 bc 1d b3 6c bd bd bc 12 be
       -0.12257136 -0.030158734 -0.057788003 -0.1432981
000180 fb 31 02 be df aa 75 bd 37 d4 9a 3d 9e 67 91 bd
       -0.12714379 -0.05997741 0.07560008 -0.070998415
000190 85 30 a4 bd 64 4f d2 3d 44 bd e5 3d 5b 88 e9 3d
       -0.08017067 0.10269049 0.1121774 0.11402961
0001a0 fa f6 40 3d 83 8e 09 3e 01 0e 63 bc 7c 6a 74 bc
       0.047110535 0.1343327 -0.013858319 -0.014917966
0001b0 7d b1 14 be 68 b6 97 3d 2e cd 86 bd 21 fe 0c be
       -0.14520831 0.07407838 -0.06582104 -0.13768817
0001c0 3d 1f a1 3d 03 4e 1d 3d 20 7a ad bd eb 27 0d bd
       0.07867286 0.038404476 -0.08470559 -0.034461897
0001d0 06 91 ee 3d 85 71 83 bc 7b 50 e2 3d aa a3 bd 3c
       0.11648755 -0.016045341 0.11050507 0.02314933
0001e0 1c 24 c2 bd 55 27 05 be d3 bb fb 3d 3e b0 91 bd
       -0.094795436 -0.13003285 0.12291684 -0.07113694
0001f0 3c 0f 06 be 01 4b dd 3d 90 21 9a bd 8c 98 20 bd
       -0.13091749 0.108053215 -0.07525933 -0.03920798
000200 59 49 a0 3b b5 7a 15 3e fc dd e6 3c 37 8a 40 bd
       0.004891556 0.1459759 0.028182022 -0.047006812
000210 f2 59 a5 bd 2f b6 b8 3c 89 45 29 bc 2a bd ee bd
       -0.08073796 0.02254781 -0.01033152 -0.11657174
000220 56 17 62 3d b1 89 a8 bd 8e b8 8c 3c 83 54 06 be
       0.055198036 -0.082293876 0.017177846 -0.13118176
000230 0d 0c 6f ba 7e 5c 64 bc 53 d6 9c 3d b9 1f b6 3c
       -0.0009118922 -0.0139380675 0.076580666 0.022231923
000240 7a 28 e8 bd 61 56 ea bd 16 a2 45 3d 8c 03 0f bb
       -0.11335845 -0.11442257 0.04825028 -0.0021822182
000250 3b cc 27 bd 9a 00 6b 3d 0a 0d 6d 3d a9 2f 04 3e
       -0.040966254 0.05737362 0.057873763 0.12908806
000260 af cc 8a 3d 60 d9 be 3d 8f 38 93 3c 5e e0 bf 3d
       0.067773215 0.09318805 0.017971305 0.093689665
000270 c4 6e ad 3d 05 88 38 3d 56 f9 ab 3d d1 f2 85 3d
       0.084683925 0.045051593 0.083971664 0.06540454
000280 07 95 cb 3c a9 d5 c4 bd 37 7f 12 3e dd fc 2d 3b
       0.024851335 -0.09611065 0.14306341 0.0026548423
000290 d5 4a ec bd 6d 34 60 3c 6e f2 88 bd f5 45 01 3d
       -0.115377106 0.013684374 -0.06686865 0.031560857
0002a0 3e 73 9f 3d 2e 48 1c 3e 57 fa 2a bd 35 d3 07 3e
       0.077856526 0.1526191 -0.04174265 0.13264163
0002b0 1f 34 65 3c a2 b0 5a bd e3 82 98 bd a0 eb be 3d
       0.013989477 -0.053391106 -0.0744684 0.09322286
0002c0 01 79 1a 3e c1 43 df 3c 1b d5 db 3d 71 50 1c 3e
       0.15085222 0.027253987 0.10734006 0.15265061
0002d0 3e 8c cd bd 83 fa 44 3d c1 bb ad 3d 72 3e 80 3d
       -0.10036515 0.04809047 0.08483077 0.062619105
0002e0 6e a2 31 3d 74 70 12 be 65 f7 91 3d 62 7f 02 3c
       0.043367796 -0.1430071 0.07127265 0.007964941
0002f0 3c 0e ae bd 38 89 d7 3d 66 9e 86 3d 5e 72 86 bd
       -0.08498809 0.10524219 0.06573181 -0.065647826
000300 1a 72 0d 3e e0 7a b8 bd 94 34 b1 bd bd a5 aa 3d
       0.13813058 -0.090078115 -0.086526066 0.08332393
000310 49 3b d1 bd 6b b7 86 bc c3 c3 d1 bb 39 e4 74 3d
       -0.10216386 -0.016444882 -0.0064015104 0.059787963
000320 f7 ce 58 3d 9d 30 04 3e 01 72 33 3d 5d c2 75 bd
       0.052931752 0.1290917 0.043809894 -0.059999812
000330 24 58 19 3e 5b 70 c8 bc 41 2c c1 3d b4 43 2a 3c
       0.14975029 -0.024467638 0.09432269 0.010392118
000340 29 45 98 bc c0 48 8d 3c 20 24 6b 3c 1a 78 bd 3b
       -0.018587666 0.017246604 0.014351875 0.0057821395
000350 8d b9 1f 3e 03 a0 30 3c f5 cb 6f bd 34 62 b3 3d
       0.15598126 0.010780337 -0.058544118 0.08758965
000360 06 06 9f bd 89 a6 ef bd dd 08 d6 bd 3f 52 bd bd
       -0.07764821 -0.11701686 -0.10450909 -0.09244203
000370 ce 50 cf bd 8a 1c 4b 3d c9 5c 4c 3d 7e 49 c6 3c
       -0.10122834 0.049587764 0.049893174 0.024204966
000380 03 1a 60 3d 36 c3 96 bd 97 ef 3a be 34 69 95 3d
       0.054712307 -0.07361452 -0.18255459 0.072954565
000390 27 21 e9 bd fd b8 40 bc 51 03 03 bd 8c 56 fa bd
       -0.113832764 -0.011762855 -0.031985585 -0.12223539
0003a0 17 a7 3f 3d 74 82 44 bb 6e da a1 bd 00 56 9d 3d
       0.04679021 -0.0029984983 -0.0790299 0.07682419
0003b0 43 50 0a bd 1e 74 fb bc f5 65 06 3d ba ac 7d 3c
       -0.03376795 -0.030695017 0.032812078 0.015483076
0003c0 82 a6 f4 bc 5a ee d2 3c bd 79 00 3d 1c 5e 54 bd
       -0.029864553 0.02574842 0.0313661 -0.051847562
0003d0 5c c9 8d 3a 17 f5 c9 3d 99 14 b3 bd 2f 28 86 bd
       0.0010817456 0.098612 -0.08744163 -0.06550633
0003e0 0f 3a 57 bc 9a 28 00 be 65 ab bf bd 51 4b cf bd
       -0.013136401 -0.12515488 -0.09358863 -0.10121787
0003f0 46 40 de 3d 2b cf e0 bb 57 03 dd bd 66 79 bf 3d
       0.10852103 -0.006860634 -0.10791653 0.09349327

model.1.weight f4 [32]
000000 f6 ed 81 3f 17 65 82 3f 5a c4 7d 3f c5 1d 80 3f
       1.0150745 1.01871 0.99127734 1.0009085
000010 ec e6 85 3f bc a9 7c 3f b7 f8 77 3f e3 2f 82 3f
       1.0461097 0.98696494 0.96863884 1.0170864
000020 9e e8 80 3f 09 00 7d 3f 74 8a 80 3f 5e 4f 83 3f
       1.0070989 0.9882818 1.0042253 1.0258596
000030 cd 2c 81 3f 88 a2 63 3f e7 5f 7a 3f 34 3f 7a 3f
       1.0091797 0.8891988 0.97802585 0.9775269
000040 22 64 78 3f 05 3c 7e 3f 8a fa 7d 3f c4 5b 84 3f
       0.9702779 0.9931033 0.9921042 1.0340505
000050 b8 93 80 3f e3 aa 75 3f f3 fc 81 3f ae ab 75 3f
       1.004508 0.9596388 1.0155319 0.9596509
000060 b8 75 7b 3f 80 77 7b 3f ad 1c 80 3f 5a 61 7a 3f
       0.982265 0.9822922 1.0008751 0.97804797
000070 ed 66 81 3f 1e 34 73 3f ce dc 72 3f 95 08 82 3f
       1.0109535 0.950014 0.9486817 1.0158869

model.1.bias f4 [32]
000000 a8 0e 07 3c 24 d6 a7 bc 82 85 b2 bc 50 ef d0 bc
       0.00824324 -0.020487852 -0.021792177 -0.025504738
000010 f5 85 3d bb a7 4c c5 bc 68 ed 18 bd 70 7d 6d 3b
       -0.0028918956 -0.024084402 -0.037335783 0.0036238097
000020 ff ee 7d 3a 14 75 9b bc 6f fb 07 bc 53 bc 82 bb
       0.0009686797 -0.018976726 -0.0082996925 -0.003989735
000030 7b 6c 2f bb c3 0b ab 3d e3 6e d2 3c 86 18 df bc
       -0.002676754 0.08351853 0.02568764 -0.027233373
000040 6d de 11 3d 09 0c 03 bd c7 ba 40 bc 41 f3 0e 3b
       0.035612512 -0.0319939 -0.011763281 0.002181247
000050 9b 16 9c bc 3b 41 1a 3d 9c ab 4f bb 8b 32 ed 3c
       -0.019053748 0.037659865 -0.003168798 0.028954765
000060 7b ab db 3c 8d be 9d bc 98 a2 6e bb 6b d2 70 bc
       0.026815167 -0.0192559 -0.0036412831 -0.014698605
000070 58 a8 63 bc 09 c5 34 3d 0a f4 46 bd d6 2c 0c bc
       -0.013895117 0.04413322 -0.048572578 -0.008555612

model.1.running_mean f4 [32]
000000 ba 64 73 3c 4a 01 70 bd b9 24 5a 3d 76 0e df bb
       0.014855558 -0.05859498 0.053257678 -0.006807144
000010 33 01 70 3c db b6 ad bd 3f da 69 bd 4c e4 af bd
       0.014648723 -0.084821425 -0.0570929 -0.08588466
000020 5e 3e 0c 3d 9d 76 cb 3c 2c 46 70 3d 7d cc e2 3c
       0.034239165 0.024836833 0.05866067 0.027685398
000030 1f ee 88 bd 26 fb 5c bd ac 45 0a 3d c6 f5 c2 3c
       -0.06686043 -0.05395045 0.03375785 0.023798835
000040 16 18 aa 3d 23 59 66 bd 65 15 58 bd 8d b4 af bc
       0.08305375 -0.05623735 -0.05275478 -0.021448398
000050 38 eb f3 bd 2f 7b 78 bc 57 4b b1 3d a3 da 31 3d
       -0.11910099 -0.015166088 0.08656948 0.0434214
000060 6a dd 95 bd 06 38 50 bb af 1c e7 3c 72 3d 94 bd
       -0.07317622 -0.0031771674 0.02821192 -0.07238282
000070 ab 25 56 3d 54 65 5a 3d c2 8f 3a bd 46 10 b8 bc
       0.052282017 0.05331929 -0.045547254 -0.022468697

model.1.running_var f4 [32]
000000 2a 09 39 3d 92 53 65 3c db 57 4b 3c df 38 54 3c
       0.045174755 0.0139969755 0.012411083 0.012953012
000010 f1 58 01 3d 18 53 15 3d 3c 99 11 3e 5d ea f5 3d
       0.03157896 0.036456198 0.1421861 0.12007592
000020 b3 4d 0d 3e 62 76 d4 3d 6e c8 95 3e 4d 12 75 3c
       0.13799171 0.10374142 0.29254478 0.0149579765
000030 65 0f 0c 3d ab 40 52 3d 99 cd ef 3d 28 1a f9 3d
       0.03419437 0.051331203 0.117091365 0.12163192
000040 1a 11 32 3e 2d 77 b2 3e 02 ca 14 3d e4 d3 ff 3c
       0.17389336 0.3485655 0.036325462 0.031228967
000050 3b 81 88 3d 61 fe cd 3d 2d 5c 18 3d 41 b3 8a 3e
       0.06665274 0.100582846 0.03719728 0.27089885
000060 31 c6 bb 3c 99 2a de 3b 9b f5 49 3c 61 ef da 3d
       0.022921653 0.0067799804 0.012326623 0.10690189
000070 82 bb 80 3c 82 4a 77 3e da 21 e7 3c c8 87 9a 3c
       0.01571441 0.24149516 0.028214384 0.018863574

model.3.0.weight f4 [32, 1, 3, 3]
000000 85 fd dd bd d8 47 9c 3c 78 a2 fa 3d 36 72 61 bc
       -0.10839371 0.019077227 0.1223802 -0.01376014
000010 bf 81 c9 bd 3b 04 7b bd 3f 4f 36 3d 69 f9 1e bd
       -0.098392 -0.06128333 0.04450917 -0.038812075
000020 45 04 a0 3d 17 10 31 3d ae ea e0 3d c2 64 c1 bd
       0.07813314 0.043228235 0.109822616 -0.09443046
000030 58 cf eb 3d b8 78 4c 3d 59 fb 1d 3e 6b 02 cc 3d
       0.11514157 0.049919814 0.15427913 0.09961399
000040 9d db 2e 3d aa 21 34 3d 79 b2 d4 bd db 24 c7 3c
       0.04268991 0.043977417 -0.103856035 0.024309566
000050 1e d5 77 bd 88 d3 fe 3c f9 5c 64 3c 5c 48 23 bd
       -0.06050598 0.031106725 0.013938182 -0.03986393
000060 a9 2d c2 3b 13 d9 f5 bd 59 3f 04 ba 87 9b 6b 3d
       0.0059258533 -0.12004294 -0.000504484 0.05752137
000070 dd 1f f9 3d 5b 4d b4 3d db 2c 8f 3b 2f 4c db 3b
       0.121642806 0.08803817 0.004369361 0.0066924314
000080 46 8a 3a 3c 55 ac 82 3d c7 64 af 3d 82 b5 89 bd
       0.011385506 0.06380526 0.08564144 -0.06724073
000090 97 f1 cd 3d 95 29 08 bc 36 d5 2c 3d b5 71 9d 3d
       0.10055845 -0.008310695 0.04219552 0.076877035
0000a0 fd 6e f4 3d b9 d9 d3 3d 24 87 06 3e 2c 9c 31 bd
       0.11935232 0.10344262 0.1313749 -0.043361828
0000b0 0c 3b dc 3d ba 91 12 3d 55 a0 d4 bd 2c 6b 46 3d
       0.1075345 0.035783507 -0.103821434 0.04844205
0000c0 c7 1f 18 3d 79 2c 85 bd 92 05 e6 bd 23 df 01 3e
       0.03713968 -0.06502623 -0.11231531 0.12682776
0000d0 7f 3e 19 3d 56 6c 13 3d f3 05 91 bd bc 10 07 be
       0.037413117 0.03599199 -0.07081213 -0.13189977
0000e0 d2 3e 07 3e e3 e4 9c bc 5f b7 85 3d df 80 89 3d
       0.13207558 -0.01915211 0.06529116 0.06714033
0000f0 50 df 3f 3d 42 c6 d6 3d 82 1c 04 3e eb 0a ce 3d
       0.046843827 0.104870334 0.129015 0.10060676
000100 73 f8 20 3c 91 ed 35 3e 19 8d f1 3d ea d8 91 3b
       0.00982486 0.17766406 0.1179449 0.004450907
000110 a7 81 c1 bd 24 0a 23 3e 11 61 1b bd cd 7b 85 bc
       -0.09448557 0.15921837 -0.037934367 -0.016294384
000120 f2 7b fd 3d a0 f2 7d bd 11 ce a6 bd d2 a1 24 3e
       0.12377156 -0.061998963 -0.08144773 0.16077355
000130 be d0 1f 3d a0 83 61 bd c7 74 bb bc 35 9b e9 3c
       0.03901743 -0.055057168 -0.022882832 0.028516391
000140 25 d0 9d 3c 37 5e 7a 3c aa 78 5b bd c0 74 ed bd
       0.01926429 0.015281252 -0.05358187 -0.11594534
000150 47 da 2e be 78 16 8c bd c6 a9 6c 3c c6 3e 09 be
       -0.17075454 -0.06840223 0.014444774 -0.13402852
000160 c1 6f 13 be d5 fe 91 3d 24 5f 46 bd db 63 e2 bd
       -0.143981 0.071286835 -0.048430577 -0.11054202
000170 fa 6e 17 bd cd b3 d6 3d 5d b6 0c bd 3c e6 a1 bc
       -0.03697107 0.10483513 -0.034353603 -0.019763105
000180 9b 3c b6 3d 94 b6 c6 bd e8 b4 ed 3d 1c 39 1d be
       0.08898278 -0.09702793 0.11606771 -0.15353817
000190 a5 98 92 bd 19 70 1d 3b 3f 50 f5 bd 6f d8 09 be
       -0.07158021 0.0024023114 -0.11978196 -0.13461469
0001a0 87 7f 58 bd 43 e8 18 3c ec 7e e7 3b fa 4c f1 bc
       -0.052855995 0.009332719 0.007064691 -0.02945565
0001b0 1a c6 04 be c1 fa 21 bb d6 30 ac bd 56 e4 f9 ba
       -0.12966195 -0.0024716111 -0.08407752 -0.0019065242
0001c0 6c b5 59 3d 38 0c 0e 3d 30 3c e2 bd 7c e4 45 bc
       0.053151533 0.03467962 -0.11046636 -0.012078401
0001d0 07 fd b2 3c 6e 8b c8 bc 41 45 4c bd e9 e6 07 bd
       0.021849168 -0.024480548 -0.049870733 -0.033179197
0001e0 95 89 41 3d d8 46 1d be e1 83 30 bd a0 c0 2c bd
       0.04725035 -0.15359056 -0.04309452 -0.04217589
0001f0 3e ef 52 be c9 ec e3 bc 16 3c c5 3d 16 7c a1 3d
       -0.20599076 -0.027822869 0.09630601 0.07884996
000200 d2 49 fc bc cf 43 56 3c 20 c8 ca bd 1d b5 54 bc
       -0.030796919 0.01307769 -0.09901452 -0.012982634
000210 a8 1d 0a 3e 86 42 a5 3d 5e b2 f6 bd fc 6e 89 3c
       0.13487875 0.08069329 -0.120457396 0.016776554
000220 7d c5 8d 3c 12 54 76 3d cf 00 33 3d f1 0c ff 3b
       0.017306084 0.06013877 0.043701943 0.007783525
000230 d0 58 06 3e 15 48 ab 3d 62 cf ea 3d 20 29 29 3d
       0.13119817 0.08363358 0.114653364 0.041298985
000240 27 c4 a6 bd 2c 43 8c bd b5 a3 19 3e 3e c6 f0 3c
       -0.08142882 -0.068487495 0.15003856 0.029391404
000250 8d b6 92 bd 01 b5 e8 3d 99 5c 14 3e 34 3a 3e bd
       -0.07163725 0.11362649 0.14488448 -0.046442226
000260 52 ec 97 3d a0 f1 1d 3e ad 13 9f 3d bf f7 6e 3a
       0.074181214 0.15424204 0.07767425 0.00091158965
000270 ce f6 f4 bc 4a b7 a2 3d f0 38 55 bc 2e 9f aa bd
       -0.029902842 0.07945116 -0.013014063 -0.08331142
000280 86 af 8d 3c 88 99 f3 3c d4 1b 82 bd 42 5e 7f 3d
       0.01729561 0.029736295 -0.06352964 0.06234575
000290 11 64 83 3d 37 ac 87 3d 06 2a 02 3c 28 4c 05 3e
       0.064155705 0.06624644 0.0079445895 0.13017333
0002a0 31 2e 9e bd 4c 21 84 3d 6d 9e 68 bd 64 5f 8e 3d
       -0.07723654 0.064516634 -0.05679171 0.06951788
0002b0 ce ba 19 be 2d e7 85 bd 6f af ec 3d 25 c3 20 be
       -0.15012667 -0.06538234 0.11556899 -0.15699442
0002c0 3b 4d 27 bc 3f 0d 7c bc 4d 48 da bc bc a1 df bd
       -0.010211284 -0.0153840175 -0.026645804 -0.1091952
0002d0 6d cd ca bb db bb af bd 1d a8 1b 3e 0f f1 bb 3d
       -0.0061890394 -0.085807525 0.15200849 0.09176838
0002e0 37 b0 9b bd d9 e9 d6 bb 63 76 1e 3e 5a ff 06 3e
       -0.0760197 -0.0065586385 0.15474848 0.13183346
0002f0 10 4e 65 bd ea 27 94 bd 25 a7 29 3d 89 68 12 3e
       -0.05598265 -0.072341755 0.041419167 0.1429769
000300 67 ff ed 3d ba 5d 2e bc 99 39 11 3e 2b 1e 0c bd
       0.1162098 -0.010642463 0.14182128 -0.034208458
000310 ff c4 74 3d 4c 47 45 3d a3 ca dc bd 6d 54 87 bd
       0.059758183 0.048163697 -0.107808374 -0.066079
000320 fa bd f0 bd c9 0b 01 3d cb a4 54 3d b3 53 c8 bd
       -0.11754985 0.03150538 0.05191497 -0.09781589
000330 c3 46 58 bc be 2e a5 3d 7a 05 24 be aa b0 53 bc
       -0.013200465 0.08065556 -0.16017714 -0.012920538
000340 87 3c 3b 3c 62 57 90 3d 97 a0 b4 3d cc 62 7a 3d
       0.011428005 0.07047917 0.088196926 0.061129376
000350 16 cf d9 bd 4d 7c e2 3d 76 28 0b be 88 1a fb bd
       -0.10635202 0.11058865 -0.13589653 -0.1226092
000360 8d 59 5c bd 55 91 2d 3d 78 30 1c be cc ad 0d be
       -0.05379634 0.042374928 -0.15252864 -0.1383583
000370 3a 7c 6e 3d 1b 62 9a 3d d0 2d 3b bc c1 05 29 be
       0.05822394 0.075382434 -0.011424497 -0.16506101
000380 d3 ce dc bb 08 ed bb 3d 10 c9 54 bd 5a 3d b5 3d
       -0.0067385226 0.091760695 -0.05194956 0.088495925
000390 6b a4 87 bd 54 99 b9 bd 2d fb 34 bd 1b 33 22 bd
       -0.06623157 -0.09062448 -0.044184852 -0.03959952
0003a0 e4 4d e2 3d 76 88 58 3c 86 ba c8 bc a3 c7 b4 bd
       0.11050013 0.013216129 -0.024503004 -0.0882714
0003b0 d5 e7 00 3e ee 65 d7 3c 29 0e 9e 3c da 9a 8e bd
       0.12588437 0.026293721 0.019293861 -0.06963129
0003c0 ff f9 03 be 07 5b 59 bd 7f a4 b7 bc e3 92 ef bd
       -0.12888335 -0.053065326 -0.022417305 -0.11697938
0003d0 8c 88 14 be c8 96 c3 bb 0b 8f 5b 3c 8a cb 59 3d
       -0.14505213 -0.0059689023 0.013400803 0.053172626
0003e0 6f ce d1 bd 1f 91 53 3d a0 99 aa 3d 91 d0 0c be
       -0.10244452 0.05165207 0.08330083 -0.13751437
0003f0 8f cb 0b 3e 8e 71 08 bc ef 7b ca bc f5 8b ac bc
       0.1365187 -0.008327855 -0.0247173 -0.02106283

model.3.1.weight f4 [32]
000000 55 39 81 3f 7f ca 83 3f 64 4c 80 3f 2a de 80 3f
       1.0095621 1.0296172 1.0023313 1.0067799
000010 3d a9 80 3f 35 60 7e 3f 8a 1e 82 3f 45 96 80 3f
       1.0051647 0.9936555 1.016557 1.0045859
000020 3b c7 7b 3f c6 af 79 3f 82 c7 78 3f 15 c5 84 3f
       0.98350877 0.97533834 0.97179425 1.0372645
000030 b6 20 79 3f 93 61 82 3f da bf 70 3f eb c0 7e 3f
       0.9731554 1.0186027 0.9404274 0.9951312
000040 06 ca 7a 3f c7 cb 83 3f 6d 2a 7a 3f 37 d3 7f 3f
       0.97964513 1.0296563 0.97720987 0.99931663
000050 c2 aa 84 3f c8 06 77 3f 5c d4 7f 3f fe c2 74 3f
       1.0364611 0.9649472 0.9993341 0.95610034
000060 a1 70 82 3f ca 16 75 3f 92 d2 74 3f 0b c8 76 3f
       1.0190622 0.957379 0.95633805 0.9639899
000070 fb f1 86 3f dc 8e 70 3f 94 7d 71 3f 34 92 80 3f
       1.0542597 0.93967986 0.9433224 1.0044618

model.3.1.bias f4 [32]
000000 9c 1e 74 bb 16 49 5a 3b 3d a5 c3 3c 03 1a 8e bb
       -0.003724969 0.0033307723 0.023882503 -0.004336597
000010 25 06 7a 3c d8 74 c5 bc 48 e3 ed bb 39 77 ff 3c
       0.015260254 -0.024103567 -0.00725976 0.03118478
000020 3d cb 8e bc b3 ba 8e bc 28 44 2a bd ca 96 4e 3d
       -0.017430896 -0.01742301 -0.041568905 0.050436772
000030 32 0c 95 3b dd f3 ea b9 4a 42 02 bd ce d8 6d bc
       0.004548573 -0.0004481365 -0.0318015 -0.014517022
000040 ef 17 b4 3b 3e 78 48 3c 78 45 db bc 22 77 3f 3c
       0.005496017 0.012235699 -0.026766524 0.011686118
000050 e3 52 f2 3c 00 cd 0e bc 50 84 11 3d d7 46 67 bd
       0.02958054 -0.008715868 0.035526574 -0.056464043
000060 42 eb 02 3d 46 72 76 bd 48 3e f7 bc f2 e7 08 bc
       0.03196264 -0.060167573 -0.030181065 -0.008356081
000070 5a 2b 74 3d 1b bc 0c bd 63 c2 1e bc b3 9c 69 3c
       0.059611656 -0.03435908 -0.0096899 0.014258551

model.3.1.running_mean f4 [32]
000000 5a 0c 9a bc 3b b6 64 3e 3c 07 ae bd 40 4c 0b 3e
       -0.018804718 0.2233514 -0.084974736 0.13603306
000010 1b 0a 85 3e eb 63 b6 3c d6 60 04 3e cc b4 33 3e
       0.25984272 0.022264441 0.12927565 0.17549437
000020 d8 55 80 3d a8 06 6b be b6 36 7c bc b8 12 4d be
       0.062663734 -0.22951758 -0.0153939035 -0.20026672
000030 5b 07 ac bd 45 3d 60 be e8 c9 80 3d b6 20 4a 3e
       -0.083998404 -0.21898372 0.062885106 0.1973904
000040 f5 a2 d1 3d f0 69 c3 3d 32 67 a2 3d d1 92 15 be
       0.1023616 0.0954169 0.07929839 -0.14606787
000050 7b 9d f9 3d d2 59 37 3e 2a 1f 27 be f0 21 cc bb
       0.1218824 0.17905357 -0.16320482 -0.0062296316
000060 30 16 06 be f6 b3 bf ba c9 c7 ae bd ef b5 f3 bd
       -0.13094401 -0.0014625776 -0.085342 -0.118999355
000070 13 a1 22 3e c4 e4 59 3d 43 da 8d bd 12 07 17 3e
       0.15881757 0.053196684 -0.06926396 0.14748791

model.3.1.running_var f4 [32]
000000 71 1b 0e 3b 16 91 bc 3d f3 7a a5 3c fe ca 27 3d
       0.0021683837 0.092073604 0.020200228 0.040965073
000010 ad 44 d5 3d 1a 44 89 3b 0a 10 04 3d c3 bf 5c 3d
       0.104134895 0.0041890265 0.03224186 0.053893816
000020 3a 87 4d 3c f1 0d ce 3d c5 17 86 3b 80 03 b6 3d
       0.012544448 0.10061253 0.004092189 0.08887386
000030 51 e9 62 3c 06 87 98 3d 24 6e 47 3c e9 e5 94 3d
       0.013849572 0.07447629 0.012172256 0.072704144
000040 97 14 ab 3c f2 a3 89 3c b4 59 59 3c 58 a5 23 3d
       0.020883841 0.016801808 0.013266016 0.039952606
000050 11 f9 f2 3c 0c 1c 3e 3d 43 e1 2a 3d 2e a8 b1 3b
       0.02965978 0.046413466 0.041718733 0.00542166
000060 2c c7 06 3d f2 60 a3 3b c6 f1 7c 3c 28 24 df 3c
       0.03290479 0.004985922 0.015438503 0.02723892
000070 8d d9 88 3d 0a 36 d5 3b 68 d1 48 3c bb 11 21 3d
       0.066821195 0.006506686 0.012256958 0.03932355

model.3.3.weight f4 [64, 32, 1, 1]
000000 f9 2a 78 bd 48 74 71 3e 16 ff 31 be 57 0d 0e 3b
       -0.060587857 0.23579514 -0.17382464 0.0021675432
000010 9e a1 a3 bc ea bf 44 be f5 6c 1e 3e cd 50 89 3e
       -0.019974526 -0.19213834 0.15471251 0.2681946
000020 4b d4 b1 3d fa 37 22 be b1 bf 7f 3e 0a f9 29 be
       0.0868307 -0.15841666 0.24975468 -0.16598907
000030 82 75 66 3e 5a 22 1b be bd 94 93 3d e5 0e 5a 3d
       0.22505763 -0.15149823 0.07206104 0.05323686
000040 e9 b6 0e 3e 0b e2 dc 3d c0 ef 01 bd 5c a4 0f 3e
       0.13936962 0.10785302 -0.031722784 0.14027542
000050 94 1a bc 3d f1 88 18 be 82 ab 9a 3e 8c 13 55 be
       0.09184757 -0.14895989 0.30208975 -0.20808238
000060 69 ce c8 bd 52 29 90 bc e4 67 84 3e 1e 89 64 be
       -0.098049946 -0.017597828 0.25860512 -0.22317931
000070 85 2b dd bd 27 25 75 be ca f1 25 3e 55 b7 98 3a
       -0.10799316 -0.23939954 0.16205516 0.0011651317
000080 a6 51 0b 3d 0d 8c 81 3e f0 92 7d be 28 74 05 be
       0.034013413 0.25302163 -0.24763083 -0.13032591
000090 5f 0a 47 bd 5c 3c 57 be 66 1d 86 be 21 76 c4 bd
       -0.048593875 -0.21019119 -0.26194304 -0.09592844
0000a0 be e1 84 bc 98 f7 a7 3d fa b1 9d bc 32 f5 82 3e
       -0.016220924 0.08201522 -0.019249905 0.25577694
0000b0 d3 49 26 bb 5c ac e2 3d c1 7e 88 bc 58 87 23 be
       -0.0025373593 0.11068031 -0.016662003 -0.15969598
0000c0 f5 1b 4b bd 85 50 bf bd 8e 33 9a bc 77 ab 44 be
       -0.04958721 -0.0934153 -0.018823411 -0.19206034
0000d0 32 b7 15 3e 3c 18 20 3e 98 9a 07 3e a6 06 6e be
       0.14620665 0.15634245 0.13242567 -0.23244724
0000e0 e9 c2 37 3e d7 7e 4a bd c0 e2 34 3e 91 22 44 3e
       0.17945446 -0.04943737 0.17664623 0.19153811
0000f0 30 6f b6 3c b3 92 0b be 48 ab 58 be a1 f6 f4 bc
       0.022269815 -0.1363018 -0.21159089 -0.029902758
000100 fa a8 44 be 3d 40 09 3d c7 19 18 3e 87 0f 25 3d
       -0.19205084 0.033508528 0.14853583 0.04029801
000110 41 47 2f be 7e 6a 00 bd 17 3a 73 3e 03 7a 56 3e
       -0.17117025 -0.03135156 0.23752628 0.20944981
000120 13 f5 eb bc f6 1c 1f be 7e 25 3c be ec ea 19 3e
       -0.028803384 -0.15538391 -0.18373677 0.15031022
000130 21 77 3d be 31 26 be 3d 7d ee 0e 3e c6 ff 36 3e
       -0.18502475 0.09284628 0.13958164 0.17871007
000140 6d 80 ff 3c b6 ec 77 3e 6a df 0b 3d 1b f6 81 3b
       0.031189168 0.24211392 0.03414861 0.0039661056
000150 1d 3f 07 be 33 9b 13 be 1f 2b bf bb 66 b8 ef 3d
       -0.1320767 -0.14414673 -0.005833998 0.11705093
000160 94 62 8a 3e 01 d4 2a 3e 26 1a 66 3e 7f 60 84 be
       0.27028334 0.16682436 0.22470912 -0.2585487
000170 a9 5d 8d 3d 81 3d 29 be 0f 62 03 bd ff 1d 19 be
       0.0690263 -0.16527368 -0.032075938 -0.14952849
000180 4b bd 14 3e af 20 19 3e 5c 27 5e be 01 f7 af bc
       0.14525335 0.14953874 -0.21694702 -0.021480085
000190 1e d1 0f 3e ba 7b ea 3d 48 fd d4 3d dd 4a 03 3c
       0.14044616 0.1144938 0.10399872 0.008013454
0001a0 a4 44 3f 3e 16 ec 17 be 39 89 31 3e c3 09 08 3e
       0.18678528 -0.14836153 0.17337503 0.13284974
0001b0 98 03 11 3e 99 57 75 3e 9b bc e5 3c 9e b9 54 3e
       0.14161527 0.23959197 0.028044036 0.20773932
0001c0 9a 1b 4f 3e 73 b6 02 3c b1 ba 45 be cb 6c 9c bd
       0.20225373 0.00797807 -0.19309498 -0.07637938
0001d0 35 50 ca bd 3d fd 0d be 39 33 0c be ab 9e 08 3e
       -0.098785795 -0.13866134 -0.13691415 0.13341777
0001e0 61 32 f6 bd fb 2a 56 be 7f 9f 82 3b 48 58 4f 3d
       -0.12021328 -0.20914833 0.0039862986 0.0506213
0001f0 cb 17 a1 bd 5d cf 23 3e ce cf 7a bb 0d 9a b8 bd
       -0.07865866 0.15997072 -0.0038270834 -0.09013758
000200 c0 24 05 be c1 59 c3 3d 49 63 49 3c f3 5b 3a be
       -0.130023 0.095386036 0.012291738 -0.18199138
000210 34 2d 01 be c4 ca 0e bd a2 4e 7d 3d 71 25 0c 3d
       -0.126149 -0.03486134 0.06184257 0.034215394
000220 f9 5e 53 bc 60 c3 ed 3d 26 b2 0b 3d 66 cc 0f 3c
       -0.012901061 0.116095304 0.034105442 0.00877676
000230 52 97 01 bd c9 f9 8f 3e bd 04 c3 bc c0 93 2b 3e
       -0.03163845 0.28120258 -0.02380597 0.16755581
000240 0f 02 2f 3e da 60 6b 3e d7 f9 a4 bd ae a3 83 3d
       0.17090629 0.22986165 -0.08055466 0.06427704
000250 fc fe 31 be c9 f4 30 3e 26 ed 3e bd 12 15 1a 3e
       -0.17382425 0.17280878 -0.04661288 0.150471
000260 8c a0 2b be 8a b7 d6 bc 26 c7 1d bd 67 16 38 3d
       -0.16760463 -0.026210565 -0.03852 0.04494324
000270 5b 06 65 3e 25 a2 1e be 81 5b 43 3e 7f 0a 5e be
       0.22365706 -0.1549154 0.19077875 -0.21683691
000280 8c 12 a0 3c 6a 58 0e 3e c1 b2 fd bd 73 bc d8 3c
       0.019540094 0.13900915 -0.1238761 0.026457047
000290 9c 54 15 be 5c 85 93 3d 40 10 52 bb 51 a3 a4 bd
       -0.14583057 0.07203171 -0.0032053143 -0.08038963
0002a0 d9 7c 1d be 41 25 e9 3d 37 cf c1 bd ed 3c cf bc
       -0.15379657 0.11384059 -0.09463351 -0.025297606
0002b0 d3 97 da 3c ed 22 ff bd 53 65 4f be ae 63 7c be
       0.026683724 -0.124578334 -0.20253496 -0.246474
0002c0 2c 7d 25 be 9f 99 14 3c 3f 7e 30 3e 1c 00 36 3e
       -0.1616103 0.009069829 0.17235659 0.17773479
0002d0 d6 58 25 be dd 8b 13 be 9d 03 e4 bd 93 c9 3f be
       -0.1614717 -0.14408822 -0.11133502 -0.18729238
0002e0 5e 7c 35 be 83 6f 36 be c7 88 47 be eb 95 05 3e
       -0.17723224 -0.17815976 -0.1948577 0.1304547
0002f0 51 16 64 3e 41 a5 c0 bd 10 03 84 bd 38 8c 67 3e
       0.22274138 -0.0940652 -0.064458966 0.22612083
000300 dd cd 58 3d 37 5f c5 3d ea 7b 3e be 8f f6 d0 3d
       0.0529307 0.096373014 -0.18601957 0.10203277
000310 44 86 7e be 45 31 4d 3e 8e 82 07 bc 59 4d 8e 3e
       -0.24855906 0.20038326 -0.008270873 0.27793387
000320 da 9e 13 3d b2 c6 57 bd 92 58 8b bb 1c f8 fb bd
       0.036040165 -0.052679725 -0.0042525018 -0.123031825
000330 94 cd 63 be 4a 84 f9 3d 85 85 27 bd 1b ae 16 be
       -0.2224639 0.12183435 -0.04089882 -0.14714853
000340 a0 3d dd 3d 28 8e 0f bd 2f f3 47 3d b7 bd b0 3d
       0.1080277 -0.03504768 0.048815902 0.08629935
000350 ef 97 53 bd c4 2a 25 be 6a bc fb bc 36 26 e6 bd
       -0.051658567 -0.16129595 -0.030729491 -0.11237757
000360 38 85 08 3e b5 64 8a 3d f4 6e 13 be 92 7d 6c be
       0.13332069 0.067574896 -0.14397794 -0.23094776
000370 91 cc 25 be 0e 6e 23 3e d5 77 f3 3c 94 9c 63 3e
       -0.16191317 0.15959951 0.029720226 0.22227699
000380 40 aa 1c be 54 93 58 be 69 d1 5a be fa f6 7e 3d
       -0.1529932 -0.21149951 -0.21368946 0.062247254
000390 a2 49 12 be 2f b4 1a be 54 00 0c 3e 10 2a 05 3d
       -0.14285901 -0.15107797 0.13672 0.032510817
0003a0 51 ed 1f be 26 ab 30 be 63 eb e2 bd 2d 39 3d bd
       -0.15617873 -0.17252788 -0.11080053 -0.046197105
0003b0 c5 a2 84 bd 22 80 18 3e d9 36 8e 3d 8b d1 e6 3d
       -0.06476358 0.14892629 0.06944055 0.11270436
0003c0 6b 49 51 3e b6 4f f7 bd e1 ba 59 3e 16 68 df 3c
       0.20438163 -0.120757505 0.21262695 0.027271312
0003d0 22 86 1c 3e e8 29 88 3e 50 77 19 3e 3b 91 dc 3a
       0.15285543 0.26594472 0.1498692 0.001682795
0003e0 d7 9e 87 3d 3a 4f a5 3d e6 34 2a be 31 dc 0b 3e
       0.06622093 0.08071752 -0.16621742 0.13658215
0003f0 7a 3d 2f be 7c a6 e0 bd e4 9b 00 bc ca 93 39 b9
       -0.17113295 -0.109692544 -0.007849667 -0.0001769803

model.3.4.weight f4 [64]
000000 c7 51 7f 3f 3e 4d 83 3f 4d c8 84 3f 16 90 82 3f
       0.9973416 1.0257947 1.0373627 1.0200222
000010 02 5b 88 3f 66 e6 80 3f be d1 86 3f 4e df 84 3f
       1.0652773 1.0070312 1.0532758 1.0380647
000020 f9 b2 87 3f f8 66 83 3f 8b 05 86 3f 7b 14 76 3f
       1.0601493 1.0265799 1.0470442 0.96125
000030 8c 2f 7c 3f a9 e9 86 3f 8d 0a 80 3f 8b 01 85 3f
       0.9851005 1.0540057 1.000322 1.0391096
000040 6c b2 8a 3f eb 8a 8a 3f ad 37 83 3f bf 56 72 3f
       1.08357 1.0823644 1.0251366 0.94663614
000050 4d 9a 81 3f 5d 37 85 3f 62 3a 81 3f ea c6 81 3f
       1.0125214 1.040752 1.0095942 1.0138829
000060 e1 c2 81 3f 1b a2 81 3f 7e f4 80 3f 56 55 86 3f
       1.0137597 1.0127596 1.0074613 1.0494792
000070 0e da 81 3f 85 59 87 3f fc b8 7c 3f 5c 23 84 3f
       1.014467 1.0574194 0.98719764 1.0323291
000080 b9 da 82 3f 57 5f 80 3f 13 e9 7e 3f 2a 30 84 3f
       1.0222999 1.0029095 0.99574393 1.0327199
000090 18 dd 86 3f 3c b3 83 3f 5c a2 84 3f 7b 74 8b 3f
       1.0536222 1.0289073 1.0362048 1.0894922
0000a0 7d bb 84 3f db 91 85 3f 80 11 7a 3f 2f 80 80 3f
       1.0369717 1.0435137 0.9768295 1.0039119
0000b0 a6 6b 83 3f 38 4d 83 3f 2a 0b 85 3f be 71 84 3f
       1.0267227 1.025794 1.0394032 1.0347211
0000c0 06 2d 88 3f b9 f0 81 3f 0f 3e 83 3f ab 6c 84 3f
       1.063874 1.0151588 1.0253314 1.0345663
0000d0 4b 2d 82 3f 54 74 80 3f 95 b6 86 3f b7 41 7c 3f
       1.0170072 1.00355 1.052447 0.9853777
0000e0 3f 92 80 3f a9 9a 84 3f 77 94 84 3f 0e 9a 83 3f
       1.0044631 1.0359699 1.0357808 1.0281389
0000f0 fe 0b 83 3f 1b fe 71 3f 9a a4 7f 3f 0a 08 86 3f
       1.0238035 0.9452836 0.9986054 1.0471203

model.3.4.bias f4 [64]
000000 91 71 93 bb c8 33 4d 3c 69 f7 d1 3c 86 f2 b6 3c
       -0.004499622 0.012524553 0.02563067 0.022332441
000010 e6 c8 82 3d 01 8d 88 3b 55 e4 1a 3d 35 62 fb 3c
       0.063859746 0.0041671996 0.03781541 0.030686477
000020 32 86 5e 3d d4 04 93 3c 99 d2 d3 3c 63 d0 22 bd
       0.054327197 0.017946638 0.025857257 -0.039749514
000030 55 1e 81 bc 7d e1 3d 3d 50 d5 89 3c 59 4c c6 3c
       -0.015761534 0.04635762 0.016825348 0.024206327
000040 c7 9a 32 3d d3 54 98 3d 17 10 37 3b b8 92 29 bd
       0.04360464 0.07438054 0.0027933174 -0.041399688
000050 b0 bc 84 3b f7 0b d0 3c cc 14 0c 3d 95 a5 bc 3c
       0.0040508136 0.02539633 0.03419952 0.023028174
000060 b1 97 5a 39 6a 2d 15 3c f5 52 a9 ba 00 c7 f4 3c
       0.0002084661 0.009105066 -0.00129184 0.029880047
000070 d1 e2 48 bb 52 03 0e 3d 2e 2e 09 bc af 00 23 3d
       -0.0030652771 0.034671135 -0.0083728265 0.039795574
000080 4f 6c 0b 3a 59 c0 47 3c 4c 69 c2 3a 71 56 13 3d
       0.00053185684 0.012191855 0.0014832406 0.03597111
000090 d3 f7 7a 3c e2 d7 f5 3c ec cc ef 3c ad b9 83 3d
       0.015317875 0.030010168 0.029272519 0.06431899
0000a0 10 a5 30 3c 82 1f 12 3d e4 dc f3 bc 3d 47 0c 3b
       0.0107815415 0.03567458 -0.029768415 0.0021404766
0000b0 79 c0 d4 bb 8e 50 08 bc c8 10 51 3d 43 a9 37 3c
       -0.006492671 -0.008319987 0.051041394 0.011209789
0000c0 1a 2b 76 3d 55 dc 92 3a b0 5b f6 3c f0 dc b1 3c
       0.0600997 0.001120458 0.030073017 0.021711797
0000d0 87 d9 4f 3c 07 0c 6d bb a4 21 14 3d 35 92 7c bc
       0.01268614 -0.00361705 0.036164895 -0.015415718
0000e0 2c 92 15 3c ce fc e1 3c 57 ca 29 3d 9a 01 62 3c
       0.009129088 0.027586367 0.041452732 0.013794327
0000f0 20 c0 b6 3c c7 ed 12 bd b2 87 3e bc d7 81 02 3d
       0.02230841 -0.035871293 -0.011629032 0.031862106

model.3.4.running_mean f4 [64]
000000 fc bd 85 3e eb f9 d3 bd af 01 57 3e d6 18 96 3e
       0.2612151 -0.103504024 0.20996736 0.29315823
000010 45 cd 78 3e 96 9b eb be e7 35 b4 bd f4 c3 4b bb
       0.24297054 -0.4601714 -0.087993436 -0.003109214
000020 fc 68 f6 3e 17 d8 63 bd e8 34 35 be 89 88 a8 bd
       0.48126972 -0.055626 -0.17695963 -0.08229167
000030 06 7f eb be 35 51 87 be 40 16 44 be 46 6d e7 3e
       -0.4599535 -0.26429144 -0.19149113 0.45200557
000040 3c f7 19 bf 10 95 68 3e 7a 99 57 be 89 4a ed 3c
       -0.60142875 0.22713113 -0.2105464 0.028966205
000050 52 88 46 bd c2 86 30 3d 84 c5 44 be b8 5c 0d bd
       -0.04846985 0.043097265 -0.19215971 -0.03451225
000060 32 dd ca bd 76 52 07 3c 3f be 9e bc 56 f8 26 3e
       -0.09905471 0.008259406 -0.019377826 0.1630567
000070 16 a8 e2 3e 5c 99 1c bf 17 a2 0c bf 9a 01 1c bd
       0.44268864 -0.6117151 -0.5493483 -0.038087465
000080 59 ca 68 be 7e 07 6c 3e 95 42 6e 3e a1 8f 25 3f
       -0.2273344 0.23049733 0.23267587 0.64672285
000090 a3 00 e2 be 84 fb 89 bd dc 3e 2c 3d 4c 19 54 3f
       -0.4414111 -0.06737426 0.042052135 0.828511
0000a0 3b 89 86 3e 83 0f b8 be 05 fc 4e bd 34 f0 9b be
       0.26276574 -0.35949335 -0.050533313 -0.30456698
0000b0 c3 54 f1 3e be d8 1b be 2b fe bc be 31 27 9c 3e
       0.4713498 -0.152194 -0.36912665 0.3049865
0000c0 f3 2c cd 3d b6 dd 67 3e 67 e0 8a 3e da 13 5b 3d
       0.10018339 0.2264317 0.2712433 0.05348573
0000d0 eb 55 4e 3e d2 86 16 bf 40 39 ce 3d 97 f8 d6 bc
       0.20149963 -0.5879947 0.10069513 -0.026241584
0000e0 5c be 79 be dc c3 8a 3e db 12 bd be b5 3b 97 be
       -0.24389023 0.27102554 -0.36928448 -0.2953774
0000f0 9c 76 9c bb 4b 24 1d be 1f d6 3a 3f 44 00 33 3f
       -0.0047748815 -0.15345876 0.7298297 0.6992228

model.3.4.running_var f4 [64]
000000 7b 14 af 3e 00 86 33 3e 18 f1 84 3e cd 4d ea 3e
       0.34195313 0.17531586 0.2596519 0.45762482
000010 70 65 8b 3e e3 bc ae 3e 5f f9 13 3e f8 c7 2e 3e
       0.27225828 0.34128484 0.14450596 0.1706847
000020 75 b4 03 3f d5 fb 01 3f a9 94 5d 3e c7 4e b3 3d
       0.5144723 0.5077489 0.2163874 0.0875526
000030 9b e8 b4 3e fb 39 b7 3e 5e c6 ba 3e 2c eb 3a 3e
       0.35333714 0.35786423 0.36479467 0.18253773
000040 a5 d4 ed 3e 71 aa 89 3e e1 f4 12 3e f0 0e 18 3e
       0.46451297 0.2688785 0.14351226 0.14849448
000050 9b 40 fb 3d 04 27 79 3e f2 8f b2 3e 22 58 f1 3e
       0.12268182 0.2433129 0.34875447 0.47137552
000060 b7 4f ec 3e 56 ce 3a 3f 91 5c af 3e e6 a0 25 3e
       0.46154568 0.72971094 0.3425031 0.16174659
000070 57 4e c9 3e 1b 28 76 3e 40 66 b9 3e e9 46 0f 3f
       0.3931758 0.24038737 0.36210823 0.55967575
000080 a3 c7 6a 3e 9a 55 39 3e f1 f7 95 3d 0c 64 75 3e
       0.22927718 0.1809906 0.07322682 0.23963946
000090 29 70 a9 3e 46 9b f9 3d 7c ee 23 3e ac f6 3d 3e
       0.33093384 0.12187819 0.16008943 0.18551129
0000a0 54 82 16 3e 2f 9a c5 3e 54 3f 35 3e 71 55 7f 3e
       0.14698154 0.38594195 0.17699939 0.24934937
0000b0 79 90 0f 3f b0 97 19 3e 0d f3 25 3f 20 c0 26 3e
       0.5607982 0.1499927 0.6482399 0.16284227
0000c0 58 9e 85 3e 7c 0a 56 3e 6e e3 a2 3e 5d e5 00 3e
       0.2609737 0.20902437 0.3181414 0.12587495
0000d0 8d 23 2a 3e f8 8d 2a 3e 3f 96 fa 3d 2d d7 13 3e
       0.16615124 0.1665572 0.122356884 0.14437552
0000e0 d0 7e fc 3e a6 16 10 3e 4e 89 1c 3f de 6e a5 3e
       0.493155 0.1407114 0.6114701 0.32311147
0000f0 ff fa 79 3e b6 39 18 3f f6 ff aa 3e 7c d6 12 3f
       0.24412154 0.5946306 0.33398408 0.5735853

fc.weight f4 [47, 64]
000000 55 b4 da 3d 7d b9 99 3d eb 4e 23 3e 6e 1f 0c 3e
       0.10678927 0.07506082 0.15948074 0.13683864
000010 bc 25 59 bc 96 94 6a be 4b a3 42 3d 3f 87 54 3e
       -0.0132536255 -0.22908244 0.04751901 0.20754717
000020 fe 51 69 be 17 b5 da bd ce 6c 37 3e 88 9b ac bd
       -0.22785184 -0.106790714 0.179126 -0.08428103
000030 b4 3b 15 3b d8 a1 d7 3c 72 37 43 be 62 1e 02 3e
       0.0022771182 0.02632229 -0.1906412 0.12706903
000040 c7 35 ea 3c 68 20 09 be 3f 1a b4 bd 21 21 e0 bd
       0.028590096 -0.13391268 -0.087940685 -0.10943819
000050 7e 33 31 bb b8 e7 3a be 7c 5b fb bd 01 0a 02 be
       -0.0027038748 -0.18252456 -0.12273309 -0.12699129
000060 d4 4d 1c 3e 07 00 31 be ff 6e c1 bd 9e 61 4f be
       0.15264064 -0.17285167 -0.09444999 -0.20252082
000070 ab 20 aa bc f0 c2 ac be 3f 27 3b 3e ac d5 d2 3d
       -0.02076753 -0.33742476 0.1827669 0.10294661
000080 8e a7 b6 3d a5 40 ac 3c df 60 dc bd 0d 24 f6 bd
       0.08918677 0.021026919 -0.10760664 -0.12018595
000090 2d 4d 2c 3e c9 d0 fc 3d 54 1d 1a bd 79 04 2b 3d
       0.16826315 0.1234451 -0.037625626 0.041752312
0000a0 b2 38 e5 3d 18 0b cd 3c 8a 79 c7 3d ea 4d dd bb
       0.111924544 0.025029704 0.097399786 -0.006753673
0000b0 4c 75 72 3e 93 3f f4 3d 63 25 b7 bd a6 99 2d 3d
       0.23677558 0.11926188 -0.08942678 0.04238286
0000c0 f4 f2 03 3e 7f 79 fa bd 76 39 0e be d5 d7 c9 3d
       0.12885648 -0.12230205 -0.13889107 0.0985562
0000d0 51 54 4a bd 96 ad 5e 3e bb 2b 02 3e b0 63 16 be
       -0.049396817 0.21745905 0.12711994 -0.14686465
0000e0 a5 44 4f bd dd 8d 64 be af 69 7c be 03 07 bd bc
       -0.050602574 -0.22319742 -0.2464969 -0.023074633
0000f0 0a 90 29 be 20 55 5f be 62 54 b6 3d 8b d4 a9 3d
       -0.16558853 -0.21809816 0.089028135 0.082924925
000100 94 c0 f0 bd 45 c0 65 3e 64 59 84 be a9 70 f4 3d
       -0.11755481 0.22436626 -0.2584945 0.11935551
000110 46 bf ce bb 6c 52 7b bd f3 88 59 bd 5b 22 e5 bd
       -0.0063094227 -0.0613579 -0.05310912 -0.111881934
000120 37 0d 23 3e 30 54 cb 3d fa f1 7d bd 76 91 25 bd
       0.1592301 0.09928167 -0.061998345 -0.040421925
000130 3d d1 3a 3e 94 c1 b8 3d 6a 48 fa bd 8f 6f 00 3d
       0.1824388 0.09021297 -0.12220843 0.03135639
000140 a7 24 59 bc c1 fa 40 be 1c 0d d0 bd cb e1 25 3e
       -0.0132533675 -0.18845655 -0.101587504 0.16199414
000150 24 6a 37 be c6 5b e1 bd 5c 03 14 3e f0 db 41 3e
       -0.17911583 -0.110038325 0.14454406 0.18931556
000160 a5 3f 40 be 77 86 17 bd b0 5e 3b be e2 2f bb 3d
       -0.18774278 -0.03699347 -0.18297839 0.09139992
000170 4d 87 5d be 1f d3 6a be d9 87 3a 3e ff d1 c3 bb
       -0.21633644 -0.22932099 0.18215884 -0.005975961
000180 3b e2 09 be 8b cd 8e 3d dc 8b f5 bc 49 ac 92 3d
       -0.13465206 0.06972798 -0.029973917 0.07161767
000190 3a 86 69 be 21 92 b8 bd 4d 4a 12 3d d0 f1 d9 bd
       -0.2280511 -0.09012247 0.03571539 -0.10641825
0001a0 b1 6c 82 bd ed 3b b7 3d 30 3a e2 bd b3 24 0a be
       -0.063683875 0.08946977 -0.11046255 -0.13490562
0001b0 39 40 2a be 70 ac d6 bd 85 3b fb 3d f7 b7 ee 3d
       -0.16626061 -0.104821086 0.12267212 0.11656182
0001c0 38 43 a6 3a 45 eb 7b be 07 f7 6c be 89 8e 15 3e
       0.0012684828 -0.24601467 -0.23141108 0.14605154
0001d0 dd 20 8f 3d a1 1c 09 be 62 b0 11 be 33 1d 56 bd
       0.0698869 -0.13389827 -0.14227441 -0.05227394
0001e0 16 53 20 3e e2 ad 39 be a9 7c 42 3d 0e 52 b8 ba
       0.15656695 -0.18132737 0.047482166 -0.001406254
0001f0 ce df f7 3d c2 cb 34 be 3c b0 89 be 12 23 8c be
       0.12103234 -0.17655852 -0.2689227 -0.27370507
000200 c8 db b9 bd 51 2b c5 bd c4 4a 98 bc 35 18 98 3d
       -0.09075123 -0.096274026 -0.018590339 0.07426492
000210 3d 48 28 be b5 62 15 3d 45 d4 de 3d 36 e1 57 bc
       -0.16433807 0.036471087 0.10880331 -0.013176253
000220 8d 64 64 be 3f b4 37 bb c1 40 03 3e 85 dd 41 3e
       -0.22303982 -0.002803102 0.1281767 0.18932159
000230 68 da 2d be fb 18 72 be b1 22 31 3c a8 03 62 3d
       -0.16977847 -0.23642342 0.010811494 0.055179268
000240 a6 c3 13 3e 2c da d1 3d 81 58 02 3e ac 30 35 bc
       0.14430103 0.10246691 0.12729074 -0.011058968
000250 2d e2 86 3d ae a9 c5 bd 81 53 5c bd b6 eb 3c 3e
       0.06586108 -0.096515045 -0.053790573 0.18449292
000260 60 11 00 be 68 a5 e9 3d 6e 66 a5 3d 9e 3b b5 bd
       -0.12506628 0.11408502 0.080761775 -0.08849262
000270 27 77 8f 3d 9e 87 6b 3e cf 0a 17 3e 23 80 1d be
       0.070051484 0.23000953 0.14750217 -0.15380912
000280 ed 60 5b bd de 84 73 be 7e ff 08 be ee 5e b8 3b
       -0.053559233 -0.23781154 -0.13378713 0.005626551
000290 27 2e 0d bd df 9e d5 bc 1a 16 45 be 18 6b 9a bd
       -0.034467842 -0.026076732 -0.19246712 -0.07539958
0002a0 30 cb ce 3d 96 a5 bc 3d 17 0d 09 be a1 5e 46 bc
       0.10097349 0.092112705 -0.133839 -0.012107522
0002b0 ee 89 ae 3d a6 ec 60 3e 14 95 82 bd 48 37 18 3e
       0.08522402 0.21965274 -0.06376091 0.14864838
0002c0 2b 63 f1 bd 42 e0 97 3d 8e d2 f2 3d 49 6b 94 3d
       -0.11786493 0.07415821 0.11856566 0.072470255
0002d0 51 46 a4 bd 07 ce 3b 3c 57 bb 1d 3d f5 fa 4b 3e
       -0.08021224 0.011462695 0.03850874 0.19919951
0002e0 82 ad d2 3c f6 b0 c2 bc 18 01 0d be 33 e2 10 3e
       0.0257175 -0.023766022 -0.13769948 0.14148788
0002f0 19 b2 e4 bc 35 e2 0e be fc b4 0a be 5b 17 16 be
       -0.027916955 -0.13953479 -0.13545603 -0.14657347
000300 15 bf fb 3d 94 42 70 3e de 7d 9f 3d b5 e9 46 be
       0.122923054 0.23462898 0.07787679 -0.1942509
000310 9d 34 ac bd fb 7e d0 3d ba 36 88 3e af fd 69 3b
       -0.08408473 0.101804696 0.26604253 0.0035704186
000320 12 53 c8 3d 29 0d 7e be d0 62 f6 3c 91 d0 3f 3d
       0.097814694 -0.24809708 0.030076414 0.046829764
000330 b2 d6 ab 3c 6d f9 7f 3e b6 b8 17 be 55 f8 2f be
       0.020976398 0.24997492 -0.14816555 -0.17184575
000340 d9 0b 9b 3d e7 17 e1 bd 30 74 06 3e d8 ab 4c 3e
       0.07570619 -0.10990887 0.1313026 0.19987428
000350 69 7f 20 bd 1a e6 65 3e 3b f2 10 be 29 ee 98 3d
       -0.039184008 0.22451058 -0.14154904 0.074673004
000360 a0 0a 4e bd 1e 8f 1f be 27 f5 96 bd 7f 04 80 bb
       -0.0503031 -0.15581939 -0.07370978 -0.003906786
000370 e3 1d 4e 3e 8a 6b a8 bc d1 03 10 3e 20 be c5 bd
       0.20128588 -0.020559091 0.14063956 -0.09655404
000380 d3 fa f3 3d 11 27 a4 3c e8 00 ff bd c3 17 03 3d
       0.11913075 0.02003816 -0.12451345 0.032005083
000390 9a 04 2a be 58 5f df bd b7 e3 32 be ab df 1d 3e
       -0.16603318 -0.10906857 -0.17469679 0.15417354
0003a0 75 24 04 3e df fe 44 3d 6d cf b0 3c 30 8d 17 3d
       0.12904532 0.048094627 0.021583283 0.03699988
0003b0 82 4e 7f 3e b1 47 6b be 5e 9c b3 bd 0f 9d 5b 3d
       0.24932292 -0.22976567 -0.08770059 0.05361658
0003c0 31 2a cd 3d 44 b8 45 3e cf 3a 1b 3e 58 17 d7 3d
       0.10017813 0.19308573 0.15159152 0.10502499
0003d0 53 f0 dc 3d 5d 4e 91 3d c3 d3 06 be 10 ca 6c be
       0.10788026 0.07095025 -0.13166718 -0.23123956
0003e0 56 2a 83 3d 23 3b 28 3e f2 1c 32 be 1c 69 75 be
       0.06404559 0.16428809 -0.17393854 -0.23965877
0003f0 52 f0 63 3d ae 20 fa bc 8e 8e 65 3d 54 69 60 be
       0.05564911 -0.030533161 0.056044154 -0.2191518

fc.bias f4 [47]
000000 47 69 c1 bc 6e 3a 2d bc c8 d1 64 bb ce 27 b7 3b
       -0.02360977 -0.010573013 -0.0034915078 0.005589462
000010 d9 ac a3 bc c2 80 e7 3c 4e 0c 25 3c 85 29 f9 ba
       -0.019979881 0.028259639 0.010073734 -0.0019009566
000020 04 c9 92 bc 78 29 37 bb 41 2f f1 bc f8 3c b1 3a
       -0.017918117 -0.0027948301 -0.029441478 0.0013522198
000030 f0 72 1e bb 52 0b ed 3c 67 5f d2 3b 83 69 11 bc
       -0.0024177395 0.028936062 0.0064200643 -0.008875254
000040 b8 c2 6e bd 1e 1a 5c bc c9 e8 76 bc a2 07 1c 3c
       -0.058291167 -0.013433961 -0.015070149 0.009523304
000050 1d 6d 21 bc 70 39 81 bc 36 1a 6e 3c 49 46 ec bb
       -0.009852675 -0.015774459 0.014532616 -0.007210527
000060 f2 df fc bb 76 ba c5 bb 2e 72 8d bc 46 6f 50 bc
       -0.007717126 -0.0060341908 -0.01726636 -0.012721842
000070 6b 9c 9a 3c ca ad c0 bc 59 97 30 bc b1 3c 04 3c
       0.018873414 -0.02352037 -0.010778272 0.008071111
000080 be 94 2d 3c 69 54 4d bc ba f7 02 bd 64 4a 8e bc
       0.010594545 -0.012532332 -0.03197453 -0.017369457
000090 4f b8 52 bc 87 4d c4 3b 0f cc 8a 3a 78 b8 b4 3c
       -0.012861325 0.0059906873 0.0010589379 0.022060618
0000a0 bf 25 92 3c 69 8a 47 bd db f6 f0 3c 24 57 21 3d
       0.017840264 -0.048715983 0.029414585 0.039389744
0000b0 d4 eb 00 bd c7 7c 21 bd e4 25 6b bd
       -0.031474903 -0.039425638 -0.057409182
