task_2/checkpointsoverfit/savedmodel.pt (torch, 92376 bytes, 39 tensors)

model.0.weight f4 [32, 3, 3, 3]
00000000: a4f3 25be cf77 2a3d 2b49 34bd 2f12 10be
00000010: 2c26 79bd fc3f 863d cc19 523d 63c1 d5bd
00000020: 5693 28be 46a7 993d 597a 503e 9839 633e
00000030: cf9d 4d3d cf95 c73d 1962 eb3d c208 493d
00000040: 48e2 b93c fea7 953e cc49 2ebe 1008 a5bd
00000050: 0a01 16bd e065 eabd d108 03bd d7c4 83bd
00000060: 86fa 78bd f61d 0dbd 9b8e 543c 0778 2a3d
00000070: 37ce 2cbe 6338 e3bd 9771 3bbe 13e1 5abe
00000080: b4b8 533c 161c 3bbe 2552 783d 0c34 3fbe
00000090: 62b3 013e 986d 163e bd25 cd3d 2b79 f23d
000000a0: 3468 a3bc a29e fdbc 21c4 203e 79fe 1c3d
000000b0: d282 2d3d 92b5 11bd 248c 27bd b41a a73d
000000c0: d3a4 373e 4534 383e 720a 343e fd51 9c3c
000000d0: 0697 8ebc 424b 1c3e 7802 313e f8eb 17bb
000000e0: 3406 b5bd 3bbb df3d 6c99 ef3d 7d99 f73d
000000f0: b027 9a3d 61c1 4f3e f605 863d 9f0f 27bd
00000100: 71fd a7bc d312 4d3d 5a21 63be 6674 34be
00000110: b6de b2bd 87fc d8bd 251d 2fbe 58ac eabd
00000120: d816 23be d8c6 39bd de07 d43d a9c2 023d
00000130: f534 b6bd 21ba febd d117 5a3d e1be d9bd
00000140: fd06 82bb f41b 59be 6a2c 82be f322 8abd
00000150: f736 69be 45d0 2839 ec30 febc 9a14 acbd
00000160: a817 2abe 5eda 9fbd b13c 193e 7c25 bebc
00000170: c890 dabc 051b ac3c 587b 1d3d 2690 abbc
00000180: fe2c 633d 1027 45bd d04a 653d 0fae 423e
00000190: ef80 713e 27fe 07bb 9f1f 3c3e 7cb9 6b39
000001a0: 31c0 a13c bac5 383e 007d 5a3d 91ea 063d
000001b0: 8709 5ebe 19b8 f2bd 04d8 8d3e f3b4 d8bd
000001c0: 8272 9e3d bf08 8b3e 5d3e b63d 6720 493e
000001d0: 4d4c 8b3b 594f 46bd 1f24 853d 035d 173e
000001e0: 5876 663d 06c6 983d d156 09bd e50b 4bbb
000001f0: d149 a7bd df01 e23c 62a3 c4bd 4b92 a5bd
00000200: b37e f83c 38ff ebbd dc43 51bd 7e92 cabd
00000210: 4992 a53d 3c4e f23d 42bc 5b3d 3ec0 363c
00000220: b4ee 46bd c595 793d a960 11be bf15 5f3d
00000230: 99f3 e8bc dc5e f9bd 63e3 cabd c355 bbb9
00000240: c518 75bd 3f48 5fbe def8 25be 835f 62be
00000250: 8c8b 3dbe b8ca 5dbe 3ff3 71bd 5ef5 4cbe
00000260: ccd8 f4bd 577f a73c 75cd 623d dfe1 b4bc
00000270: 0392 053e b5a3 a1bb b7f4 153e 00cf 0dbd
00000280: b4c0 f73d 9712 1b3d a900 be3c 4634 b8bc
00000290: a585 2ebe a340 903c 3422 9e3d b96e 34be
000002a0: ab86 8f3d 8175 a8bd 0499 2cbd 9b45 503e
000002b0: 204c 133e 9843 153e c114 7c3e 569c 0d3e
000002c0: 84de 373e c559 5f3e 9f80 cd3d 1ed6 0a3e
000002d0: 0af0 d43d 4644 40bd beda c0bd 7901 debd
000002e0: 1e72 893d 760b a0bd 8703 943d d99b 1ebe
000002f0: cf59 30be 0e5b 67bd a4a9 dabd d89f 933d
00000300: c76f a7bc bd06 ccbd cc78 f23d 0dfe a8bd
00000310: 2161 fcbd ee28 1b3c ef88 923d 856d 633d
00000320: e380 5b3e 514d 193e 039b 40bc 405b 5f3e
00000330: 0cf6 7c3c 74d9 18bd 40e5 303e ec55 1ebd
00000340: 05a3 d0bc e844 2abe 956b 88be 88e3 82be
00000350: 0bcc 4d3d 8a55 14be f1e9 70be ad83 b93b
00000360: 64c8 56bd 41fd c0bd b104 4ebd 6e2e 89bd
00000370: 95f3 b8bb 4815 493d 4df4 32be 8602 a3bc
00000380: 2ba2 94bd 0b6b 29be 7006 cebc 973c 0c3e
00000390: 3d27 65be e8d4 efbc d2d8 1c3d 8fa0 b8bd
000003a0: 076a 833d efae 0e3e 5a82 373e 29c7 a53d
000003b0: b7b1 733e 3dae 9a3d 5621 6e3e 5fb9 4e3e
000003c0: 11de e6bd d76a c3bc 5967 003e e723 61be
000003d0: c912 f0bc def4 7a3c 7772 7cbe cdcc c8bc
000003e0: 8269 88be 5ae7 89bd 7fc3 4cbe d8e2 5abe
000003f0: f8c3 cf3c a840 e93d 899f 2fbd 0c86 adbc
-0.16206223 0.041618165 -0.04401509 -0.14069436 -0.06082742 0.06555173 0.051294133 -0.10437276
-0.16462454 0.07502608 0.20359172 0.22189939 0.050199326 0.097453706 0.1149332 0.049080618
0.022690907 0.2922973 -0.17020339 -0.080581784 -0.036622085 -0.11445212 -0.03199083 -0.064340286
-0.060785793 -0.0344524 0.012973453 0.041618373 -0.1687554 -0.11094739 -0.1830505 -0.21374922
0.012922455 -0.18272433 0.060625214 -0.18672198 0.12666085 0.14690244 0.10016964 0.11839517
-0.019947149 -0.030959431 0.15699817 0.03832862 0.042361088 -0.03557355 -0.040905133 0.0815939
0.17933969 0.17988689 0.1758211 0.019082064 -0.017405998 0.15263084 0.17286098 -0.002318142
-0.08839074 0.10924383 0.11699185 0.120898224 0.07527101 0.20288612 0.06544106 -0.04078638
-0.020506592 0.05006678 -0.22180691 -0.17622527 -0.08733885 -0.10595041 -0.17100962 -0.11458653
-0.15926683 -0.045355648 0.10353063 0.031923924 -0.088968195 -0.12437845 0.05324537 -0.106321104
-0.003968118 -0.2120207 -0.2542451 -0.06744947 -0.22774874 0.00016099315 -0.031029187 -0.08402367
-0.16610587 -0.07805322 0.14964558 -0.023211233 -0.026680365 0.021008978 0.038447708 -0.020942759
0.05546283 -0.048132956 0.05597955 0.1901171 0.2358434 -0.0020750852 0.18371437 0.00022480445
0.019744964 0.18044177 0.053341866 0.032938544 -0.21683322 -0.1185152 0.2770387 -0.10581388
0.077366844 0.2715511 0.088986136 0.19641267 0.004251039 -0.048415516 0.0650103 0.14781575
0.056265205 0.07459645 -0.03353006 -0.0030982431 -0.08168376 0.027588783 -0.09601475 -0.08084544
0.030333852 -0.115232885 -0.051090106 -0.098912224 0.08084542 0.11831328 0.053646334 0.011154233
-0.04856749 0.060933847 -0.14197029 0.054464098 -0.028436469 -0.12176296 -0.09906652 -0.00035731317
-0.059838075 -0.21804903 -0.16208217 -0.22106747 -0.18510264 -0.21659362 -0.05906987 -0.20015475
-0.11955413 0.020446463 0.05537172 -0.02208036 0.1304398 -0.0049328455 0.14644133 -0.03462124
0.12097302 0.037859526 0.023193674 -0.022485863 -0.17043169 0.017608946 0.077213675 -0.17620362
0.07008108 -0.08225537 -0.042138115 0.20339052 0.14384508 0.14576566 0.24617292 0.13829169
0.17955977 0.21811588 0.10034298 0.13558242 0.10397346 -0.04694011 -0.09416722 -0.10840125
0.06711219 -0.07814686 0.07227235 -0.15489139 -0.1722176 -0.05648332 -0.10676888 0.07208222
-0.020439042 -0.09962223 0.118394464 -0.08251581 -0.12323213 0.009470208 0.07155024 0.055524368
0.21435885 0.149709 -0.011755708 0.21812153 0.0154395215 -0.037316754 0.17274952 -0.03865616
-0.025468359 -0.16627848 -0.2664458 -0.25564218 0.05024342 -0.14485756 -0.23526742 0.005661449
-0.0524372 -0.09423304 -0.050297443 -0.06698309 -0.0056442716 0.04909256 -0.17476006 -0.019898664
-0.072574936 -0.1654474 -0.025149554 0.13694988 -0.2237825 -0.029276326 0.038292713 -0.09014999
0.064167075 0.1393392 0.17920819 0.080946274 0.23798262 0.075527646 0.23254904 0.20187901
-0.112728246 -0.023854656 0.12539424 -0.21986352 -0.029305832 0.01531717 -0.2465304 -0.02451172
-0.26642996 -0.0673358 -0.19996451 -0.21375597 0.025362 0.11389285 -0.042876754 -0.021182083

model.1.weight f4 [32]
00000000: 4273 263f ec92 223f 2eb4 5f3f 985f 453f
00000010: 0419 573f f52c 543f fd2c 663f 145c 863f
00000020: a203 453f 9532 763f 018d 823f 0e59 3d3f
00000030: 6954 363f 967c 2a3f 3674 5e3f 6d74 6e3f
00000040: 6a13 293f b85f 613f e054 223f 03fc 823f
00000050: 841b 843f 8007 6d3f 0179 223f 07fc 913f
00000060: 13ad cb3e 8738 1b3f b1a2 203f 7dc9 c53e
00000070: 7002 1a3f 7074 7c3f e159 433f 0be9 883f
0.6501962 0.63505435 0.8738431 0.7709899 0.84022546 0.828811 0.89912397 1.049685
0.7695867 0.9617093 1.0199281 0.7396401 0.7122255 0.66596353 0.86896074 0.931464
0.6604525 0.8803668 0.6341076 1.0233158 1.0320897 0.9258957 0.6346589 1.1405038
0.39780483 0.6063313 0.6274825 0.38630286 0.6015997 0.9861517 0.7630902 1.0696119

model.1.bias f4 [32]
00000000: 6969 9d3e a1e6 8e3e 65a8 f0bd e41b 6c3e
00000010: 2bb3 1a3e efc8 2c3e 44d6 013e 12a9 843d
00000020: 303b 4a3e 5321 2e3d 0755 8cbc 99e4 83be
00000030: de64 803e 6ce3 99be 67a8 653e 33e2 bbbd
00000040: 8707 903e 546a 0c3e 9af5 963e 519d 513c
00000050: 3483 8e3c ea51 f53d edb2 a23e c4e6 e2bb
00000060: a53d e63e 64b6 afbe 96e5 983e 4a1b e93e
00000070: 4526 a73e b175 193d 69ed 3dbe 089d 543d
0.30744484 0.2791033 -0.11750869 0.23057514 0.1510741 0.16873525 0.12679392 0.0647756
0.1974914 0.04251225 -0.017130388 -0.25760344 0.25076956 -0.30056322 0.22427522 -0.091740035
0.28130743 0.13712436 0.29484254 0.012793855 0.017396547 0.119785145 0.31777135 -0.006924482
0.44968906 -0.3431884 0.2986266 0.45528632 0.32646385 0.037465755 -0.18547596 0.05190757

model.1.running_mean f4 [32]
00000000: 66f3 95ba 12d2 46be bc00 1b3e afb1 39be
00000010: cca1 4b3b b7ae 753d 1aa4 86bd fa44 fb3d
00000020: dc0f 36be 9ae1 e1bd bbef b13e cbb4 ecbc
00000030: 9724 393d 09d4 21bc b1d5 b53d 1a0a 86bd
00000040: b4c2 77be b0b1 1cbe f36d 18be 135b d93d
00000050: 9981 efbd 9460 4bbe 5578 e0bd bc00 fc3d
00000060: 4c9f bcbb 0f79 5dbe deb7 753e b328 573c
00000070: c886 cdbc a42c 393c ee02 8dbc 66a3 0dbe
-0.0011440336 -0.19416073 0.15136999 -0.18134187 0.003107178 0.059981074 -0.06574269 0.122690156
-0.17779487 -0.11029358 0.34753212 -0.028894803 0.04520091 -0.009877213 0.08878649 -0.065448955
-0.24195367 -0.15302157 -0.14885692 0.10613074 -0.11694641 -0.1986106 -0.109604515 0.123048276
-0.0057562944 -0.21628211 0.23995921 0.013132262 -0.025088683 0.011302147 -0.017213311 -0.13831863

model.1.running_var f4 [32]
00000000: 9f30 533d d1cb 1f3e 2715 fd3d bbc7 2a3e
00000010: da17 e93d 2ece f73e 37ff 663e f290 fe3d
00000020: 5b86 103e 9cf3 523e 5073 163f d73d b63d
00000030: 0fb5 0a3f 9099 ee3c 234b 563e adfe e43e
00000040: a224 953e 30e4 123f 2595 df3d 60ec cc3d
00000050: 3ff7 bb3e 74f6 193e f35f 5c3e c4bf 473e
00000060: 5349 db3c a9b3 883e 5e7c 023f 58d3 ef3c
00000070: 6fa7 c13e ddae 043d b18f 373d ccde 813e
0.05156004 0.15605094 0.1235755 0.16677754 0.113815024 0.4839949 0.22558294 0.1242999
0.14113753 0.20600742 0.587697 0.08898514 0.54182523 0.029125959 0.209271 0.44725552
0.2912951 0.57379436 0.10917119 0.100060225 0.3671207 0.1503542 0.21520977 0.19506747
0.026768362 0.2669957 0.5097102 0.029275581 0.37823054 0.032393325 0.04481477 0.25365293

model.3.0.weight f4 [32, 1, 3, 3]
00000000: 8b3e 263d c2d2 293e 3de9 0f3d d3b8 173e
00000010: 410b 323e ac40 bdbc ef66 e93d 8295 513e
00000020: 3bf9 9ebd eb71 503e 1d2c 013e 48a8 1bbd
00000030: 0291 063d 59a8 2d3e 4059 a43d 0acc 533d
00000040: 728e cabd fd38 8bbc 6fb1 33be 7990 d2bd
00000050: a1af 2d3d 93b3 993d 182c 3a3d 42b2 803d
00000060: 161f 373d 1f8c 073e 8c0f 5c3b 514a c4bd
00000070: 13bf 37be aca3 d63d d21a 8abd 76e5 adbe
00000080: 9b42 8d3c 31db b83c f780 ddbc 1c1e 913d
00000090: 2b54 213e 01b3 27be 9cb2 843b d54a 473d
000000a0: 11f8 3ebe ea42 b93a 87b7 0bbe 4f1f d13d
000000b0: 4408 5e3d 3389 043e 3707 2d3e 6eff 93bc
000000c0: 48ab 393e ccba 143d 93f7 b7bc 7449 043e
000000d0: f32c 093e 2409 7abd f89f d93c 6bd0 a5bc
000000e0: 3d57 c9bc 4a80 9a3e 07b9 c83d 862f 8fbd
000000f0: 7a63 8abc 47f2 8b3e 9159 2e3d 0376 27be
00000100: 7668 21be 857c 15be 1da4 85bb 6066 423d
00000110: fc7a 97bd 900a 60be 17d9 68bd 7a35 cbbd
00000120: df9f 9ebd ff9a 033e cc39 3b3e 50f9 fc3b
00000130: 69b3 6f3d 3a37 233d 2fdf 1fbe 63fd 1a3d
00000140: a74d df3d b2bb 0dbd 84c1 adbd eead 49be
00000150: a439 84bd f7c1 53bd be38 babb 5da5 b7bd
00000160: 3c27 0ebe 586a 51bd 2c13 193d 0e48 f33d
00000170: 4be3 c23d 242a 47bd 9a17 833e 5ddc 0d3d
00000180: 63ea 3dbd 5330 77bc e71d aabd fdf3 23be
00000190: 3bae e5bd b6fe 07be b559 95bd 67ad dabc
000001a0: d7ac 86bd 00b2 e5bd 4a8b d8bd a44a 1ebe
000001b0: 159b c53d fa06 01be 5799 503d d17d 4f3e
000001c0: 051f 4c3d 32d3 fabd c13f 6f3e eea9 9a3c
000001d0: f2d9 0bbe 6b50 05be f091 ddbd 69be f7bd
000001e0: b28c d4bd b36e f2bd 0a19 c5bd b5dc ecbd
000001f0: acae f4bd 2999 e7bd ccd4 073e d1c2 2f3d
00000200: cd36 a23d d620 c13d 5582 573c 255a a63d
00000210: d972 2fbe aa10 3ebe f726 a7bd 0aaf 973d
00000220: 6637 dfbd e2a1 0ebe 9a2b 4abe 64fa dd3d
00000230: 3145 1a3e 7420 b0bd b016 613d d755 893d
00000240: 39de 523d f6ed 20be 6abc 01be a854 413d
00000250: 6e9b a73c 8989 b03d 8669 c73d 8cbf 0e3e
00000260: 7d3e 223e 6c76 2e3e 2ead 933a 4b7d 393e
00000270: 3448 c7bd ea70 413e 575d 1dbb 0ec9 c2bd
00000280: e7d6 f93d 954d 253d 7744 13be 965b 1d3e
00000290: 7cf9 e93d e9c8 abbd b170 373b be8d ff3d
000002a0: 512a cdbd b69b cf39 32cd 263e 60ea 04be
000002b0: 7349 433d 93ce ebbd 1a09 9bbc 41a4 7c3c
000002c0: 8375 b0bc 9cd9 a0bd e4b6 063d 7740 0ebe
000002d0: dec2 1e3e 9088 1c3e a451 c13d ebac 90bd
000002e0: be94 ecbc e389 9d3d 161e 76bd a4d1 32be
000002f0: 77fd 21be 123b c0bd cd6b b2bd 002d 12be
00000300: fd3c ac3c e79b ff3c d90c 0b3d cdff 2cbe
00000310: abce 0cbe e376 1dbe 387c 18be 1a5b 2bbd
00000320: f485 00be 23e3 a3bd 23af 113e c3e6 21bc
00000330: c15b 86bd c8a6 663e cd33 b53d c8e7 15be
00000340: 6a3c b7bc 8e36 7cbe 2441 a7bd 380d 3f3d
00000350: 0c97 df3c 73c2 1ebe 39b1 1fbd 22f0 54be
00000360: 3863 8a3d c07f e5bd 56f5 d93d 3acd bd3d
00000370: 5717 903d f1db 4dbe a508 2fbe 2425 c13c
00000380: 6282 bb3d fd71 2dbe d657 003c 462c 20be
00000390: 4bc1 c1bd f02a 9d3d 26c1 0bbe 668c 2ebe
000003a0: 20cd 64bd eef8 05be 4cc8 2cbe 4985 3cbd
000003b0: 716c 26be 6a54 a2bd 2580 e73d db7d bfbd
000003c0: 23c2 14be 8a6b a63d 98ea 15be d7aa 893d
000003d0: f95e 31be f92a ec3d e882 10bd 990d ba3d
000003e0: f5b3 03be 1a37 5abd e012 183d 1445 163d
000003f0: 823f 1ebe 8e83 a13d 898a bd3c 95da aabc
0.04058699 0.16584304 0.035134543 0.14816599 0.17387106 -0.023102127 0.11396586 0.20467189
-0.07762381 0.20355956 0.12614484 -0.038002282 0.032853134 0.16958751 0.080248356 0.05170826
-0.098904505 -0.016994948 -0.17548154 -0.10281462 0.04240382 0.07504954 0.045452207 0.06284
0.04470738 0.13237046 0.0033578603 -0.09584487 -0.17943983 0.10480437 -0.06743397 -0.33964127
0.017243674 0.022565456 -0.027039034 0.07085821 0.15754764 -0.16376878 0.004049612 0.04865535
-0.18649317 0.0014134322 -0.13644229 0.1021105 0.0542071 0.12942962 0.16897283 -0.018066134
0.18131745 0.036310956 -0.02245692 0.12918645 0.13396053 -0.061043873 0.026565537 -0.020240983
-0.024577731 0.30176002 0.09800916 -0.06991486 -0.016893137 0.2733328 0.042565886 -0.16353612
-0.15762505 -0.14598282 -0.0040784017 0.047460914 -0.07396504 -0.2187903 -0.056847658 -0.09922309
-0.07745337 0.12852095 0.18283767 0.00772015 0.05852071 0.03984759 -0.15612482 0.037839305
0.10903483 -0.03460283 -0.08484176 -0.19695255 -0.064563066 -0.05169865 -0.0056830337 -0.089670874
-0.13882154 -0.051126808 0.0373718 0.11878978 0.09516009 -0.048624173 0.25603944 0.034633983
-0.046366107 -0.015087205 -0.08306485 -0.16011043 -0.112148724 -0.13280758 -0.07292501 -0.026694013
-0.06575935 -0.112155914 -0.10573442 -0.1545816 0.0964872 -0.12600318 0.050927486 0.20262839
0.04983427 -0.122473136 0.23364164 0.018879857 -0.13657358 -0.13018958 -0.10818851 -0.12096865
-0.10378398 -0.118375205 -0.096239164 -0.11565534 -0.119473785 -0.1130851 0.1326477 0.0429104
0.07920609 0.09430091 0.013153632 0.081226625 -0.17133655 -0.18561044 -0.08161729 0.07406433
-0.10899238 -0.13928941 -0.19743195 0.10838774 0.15065457 -0.0859994 0.054953277 0.06705826
0.05148146 -0.15715775 -0.1266953 0.047199875 0.020459857 0.08619983 0.09736924 0.13940257
0.1584415 0.17037362 0.0011266822 0.18114202 -0.097305685 0.1889073 -0.0024011934 -0.095110044
0.121991925 0.04035719 -0.14381586 0.15366969 0.114245385 -0.0838793 0.0027990753 0.12478207
-0.10017837 0.0003959813 0.16289213 -0.12980032 0.04767747 -0.1151401 -0.018925238 0.015420021
-0.021540409 -0.07854006 0.03288926 -0.13891779 0.15504023 0.1528647 0.094394 -0.070642315
-0.02887952 0.076923154 -0.060087286 -0.17462784 -0.15819345 -0.09386267 -0.087119676 -0.14274979
0.021025175 0.03120227 0.0339478 -0.16894455 -0.13750713 -0.15377383 -0.14891136 -0.041834928
-0.12551099 -0.08002307 0.14226966 -0.009881678 -0.065604694 0.2252456 0.08847771 -0.14639199
-0.022367675 -0.24630186 -0.081667215 0.046643466 0.027293704 -0.15503864 -0.038987372 -0.20794728
0.06757206 -0.11206007 0.10642497 0.092676595 0.07035702 -0.20103432 -0.17093141 0.02357728
0.09155728 -0.16938014 0.007833442 -0.15641889 -0.09460696 0.07674205 -0.13647899 -0.17045745
-0.055859685 -0.1308324 -0.16873282 -0.046025548 -0.16252305 -0.07926257 0.113037385 -0.09350177
-0.14527182 0.0812598 -0.14640272 0.06722038 -0.17321385 0.11531634 -0.035281092 0.09084625
-0.12861617 -0.053275205 0.037127376 0.03668697 -0.15453914 0.0788642 0.023137348 -0.020856181

model.3.1.weight f4 [32]
00000000: bfac 743f b88c 643f 5461 6d3f 2561 893f
00000010: e34b 813f 14ca 883f 4d36 5c3f 1d2a 9d3f
00000020: ca4a 523f 8631 963f 458a 733f bb8a 8e3f
00000030: 0c4b 563f cec5 9a3f bb2b 8c3f 9220 5d3f
00000040: 5b24 5c3f 2b34 473f 050d 2f3f 42c2 8f3f
00000050: 9a4f 943f 2b54 8d3f 5552 5f3f 8e73 933f
00000060: 8fed aa3f e3cc 743f 44e5 543f 6051 a53f
00000070: d8f0 793f da12 843f 4955 653f a1ac 753f
0.9557609 0.8927722 0.92726636 1.0732771 1.0101284 1.0686669 0.86020356 1.2278477
0.8214537 1.1733863 0.9513286 1.1136087 0.8370826 1.2091615 1.0950845 0.86377823
0.85992974 0.77813977 0.6837924 1.1231158 1.1586792 1.1041311 0.87235004 1.151964
1.3353747 0.9562513 0.8316233 1.2915459 0.97633123 1.0318253 0.8958326 0.95966536

model.3.1.bias f4 [32]
00000000: 1e44 b23e 8db4 1b3e c452 0cbe e991 b0bc
00000010: 678d 55be 06e4 c03e 7b45 543d f4e5 1b3e
00000020: adb0 e03c ab01 ab3d 5278 c6bb 031f 44bd
00000030: 0d99 113d 3721 053b 6c22 49be d7e6 41be
00000040: b892 8c3d 1875 d0bd f7d8 42bd 7e04 803e
00000050: 309f 81be f043 fc3d 4506 2dbe d79a 0f3d
00000060: 47ae 82bd f9cf 0d3c 975a 77be 9a26 9fbd
00000070: 22ca a03d 715f 7abe 7b84 88be caf1 893c
0.34817594 0.15205593 -0.13703448 -0.02155395 -0.20854722 0.37673968 0.051824074 0.15224439
0.027427996 0.083499275 -0.006056824 -0.047881138 0.03554635 0.0020313987 -0.19642037 -0.18935715
0.06863922 -0.10178584 -0.047570195 0.25003427 -0.25316763 0.123176455 -0.16896923 0.035059776
-0.06380897 0.008655542 -0.24155651 -0.077710345 0.07851054 -0.2445047 -0.26663575 0.016838927

model.3.1.running_mean f4 [32]
00000000: 6e7d a43e ad4e 573e a13a 293d dca1 60be
00000010: 8a3d 5fbd 556f 8f3e 98c8 893e a93e c8be
00000020: 2268 063e 26a3 93be b888 1b3e 3fb0 27be
00000030: 8591 f53d d2db d6bd ca6f bd38 073c d4bc
00000040: 5d23 113e 15ad 623e 6e36 ba3d d0ff 18be
00000050: 0ce9 22bc d7b8 93be 9c4f 06bc dd36 c0be
00000060: ae73 b4bc 9453 cbbd f299 8bbe 36a0 bfbc
00000070: 3cfe 8e3d b573 813d 0349 cb3d 4f75 dbbe
0.32126945 0.21026106 0.04131568 -0.21936744 -0.054502048 0.28014627 0.26910853 -0.39110306
0.13125661 -0.2883541 0.15188873 -0.16375826 0.11990646 -0.10491146 9.0330446e-05 -0.02590753
0.14173646 0.22136338 0.09092413 -0.14941335 -0.009943258 -0.2885196 -0.008197691 -0.37541857
-0.022027817 -0.09928051 -0.27265888 -0.023391824 0.06982085 0.063208975 0.09926035 -0.42862937

model.3.1.running_var f4 [32]
00000000: 0f0e ee3d 9aa7 4f3d 930d fa3b 1d0c 523d
00000010: 9e71 493c 1849 f33d 53d8 d63d cfd0 5d3e
00000020: 5ad5 023d 4d7a 073e 573a 1d3d b42c 403d
00000030: ce6b bb3c 4051 093d 40dd 7c3c 3c70 b23b
00000040: 0a5f f93c 816b 8f3d 71c1 283c 292d 943d
00000050: 7e1a 803c ab49 fe3d 2b54 d83b 6a18 5a3e
00000060: 604c 383c d30f 033d 7153 883d e14d c63b
00000070: a19b 4d3c 9ec7 0e3d 726e 653d 3f31 973e
0.11623775 0.050696947 0.0076310127 0.051281083 0.012295155 0.11879176 0.10490479 0.21661685
0.03194175 0.13230248 0.038385715 0.046917632 0.022878554 0.03352475 0.0154336095 0.0054455083
0.030440826 0.070029266 0.010300026 0.07235176 0.015637632 0.12416395 0.0066018305 0.21298376
0.011248678 0.031997513 0.0665654 0.0060517644 0.012549312 0.03485834 0.056013532 0.2952976

model.3.3.weight f4 [64, 32, 1, 1]
00000000: a7cd f4bd 9e3c 70bd a7b8 7abb e969 67be
00000010: b426 5bbd b199 98be ebe0 22be ead9 933d
00000020: b6c1 84bc d6a8 8f3d f4d3 9a3b 613a 4d3e
00000030: bba1 44be 8f99 233d 2d61 a3bd ae2d 17bd
00000040: 3a05 95bc 9dff 963c 94be 2f3e d4f6 843e
00000050: 6d18 64be 24a3 0bbe eea9 5dbe 4dd8 e03e
00000060: c3f1 163d d1f8 ac3e c4e8 89bd 8c33 a03d
00000070: d2b3 8fbe 9e2a 66bd 002e 14be 312b 673e
00000080: 72a1 6bbd d1be 873e 76ca 863d ef3f 15be
00000090: e538 aabd d758 82bd c818 ae3d 3d30 273e
000000a0: 480b 033e c227 0e3e 2ef6 e03d 5884 2d3e
000000b0: dca6 99bc 74e4 783e f71c 9cbd 525d 5abd
000000c0: b040 713e ba61 ca3c 9787 853c cc3d 1d3d
000000d0: 5f73 9ebe a6e2 33bd 6be4 6cbe 3c70 c43e
000000e0: 483f 50be f6f4 333d c35e 3cbe 1d21 76be
000000f0: 5c82 a9bd 1f5b fcbd 9702 f4bb ab9b fcbb
00000100: f08f 5ebe f68a 0abd 3bcd 59be 5df9 64bd
00000110: 38c4 483d 9e60 583e e99e 02bd 126e b4bd
00000120: 549a 09bc 1c70 b7bd 8e7a 5ebd d306 5e3e
00000130: f52a 81bd 4a2d e73c b01c 4dbc f187 b43d
00000140: 28a7 3abe fa7e d23e af72 39be 81c0 b03e
00000150: 9ff3 013e e60c 893e 77fc 273e 9e07 babc
00000160: 7185 35bd 3c44 243d b81f 483c 7cc4 6cbd
00000170: a6a4 083e 816c c2bd f443 d8bc 1c3f 803e
00000180: 067a fbbd a4a3 783d 429b 6b3d 8616 903e
00000190: 804b 9bbc f84c 3dbe 1a06 96be 9aea 8f3c
000001a0: 5123 01be 1487 d93d e6f7 e3bd d82c d63c
000001b0: de7a 88be 25cf e3be c6c9 563d 9226 84bd
000001c0: 26e1 24be ad1d c6bc a5b7 ff3c a0f9 033e
000001d0: 4373 25be ea87 9f3e 8ca2 dcbd 1263 ed3d
000001e0: 8460 623e 3d1e 123e d887 173e 8fba 1c3e
000001f0: 3921 7dbe 6b9c 8239 dfa8 d9bd bd6f c0bc
00000200: 1711 c4bd 2eba 90be 2fd6 8bbc 5b4e dabe
00000210: aa21 b5bb 54e4 8b3d ddca 4abd f416 903d
00000220: 0ddc 06be e32e ffbe a877 e9bc 598a e33d
00000230: 6ad7 81bd 6b6e e63d ab28 353e 74e0 163d
00000240: 965d 3cbe 416c af3d ff08 833d da12 e93d
00000250: 6bd7 bd3d a0df 17be 43fe 2ebe 525e ef3d
00000260: 7451 3c3e 0e57 1a3d 72d6 453d 0281 483e
00000270: af8c 87bd cb49 743c 239b 033d 6e35 a83e
00000280: 52af f0bd 41d9 b73c 033c cbbd 20ec efbd
00000290: da58 cabd c747 83be 6abc 41be 05a1 e23d
000002a0: 8853 83bd 8dbf 93be 35fd 2dbe 4ac5 9c3e
000002b0: 7358 19be bf48 8d3e 1fce ebbd c62c e3bd
000002c0: e5c5 aebd 24f3 90bc ee53 62be aad0 6d3e
000002d0: 4edc 2ebe 4295 053d fa70 b0bd b7f5 4e3e
000002e0: ee43 3b3d 897d 143e 9022 2abe 54ce ff3d
000002f0: b864 5dbe c2b2 25bc 690c e8bd d012 303d
00000300: 3c4d 0c3d 6e45 4c3d f00d 093d 8707 84bc
00000310: d5b9 903e 779e b6bd 073a acbc d52b 4bbe
00000320: 808c 753e 7ec0 7bbd 0ee3 90bd 705e a2be
00000330: 1b42 b33c 01e2 c2bd 0343 f13d 2288 403d
00000340: fd0d f4bd 9b11 ac3c 1081 28be 5934 70bd
00000350: c354 5b3d 81d1 0ebe 2e2a a83d 7907 e0be
00000360: 28f5 0f3d de3c 68be 4939 90be d1cd f13b
00000370: ee2c 303e 859e c33d c57e 713e 349c 98be
00000380: 56e6 08be c660 823d d1a4 c53c 7bd4 2ebe
00000390: 0dd5 54bd 0b5d 1dbd 1853 43be a1ab 2d3e
000003a0: a41f d23e 031f 383e bad7 8cbd 8ef4 5e3e
000003b0: c03e 2d3e 0393 1f3e c419 c4bd 97c5 3cbe
000003c0: 72da e73d c9da 2dbd 0099 73bd cfcd 383c
000003d0: b766 40be 91f4 20bd 1018 1a3e a9ab bdbc
000003e0: 5699 7dbe 0ab7 6dbe 6d02 49be 61c0 81be
000003f0: c778 24be 29e6 8cbb 00bb 993e b3ee f3bd
-0.119532876 -0.05865156 -0.0038257034 -0.22598995 -0.053503707 -0.29804757 -0.15906112 0.07219298
-0.01620565 0.07014625 0.004724974 0.20041801 -0.1920232 0.039941367 -0.07977519 -0.036908798
-0.018190969 0.018432433 0.17162544 0.25969565 -0.22274943 -0.13636452 -0.21646854 0.43915024
0.036851656 0.33783582 -0.0673385 0.07822332 -0.2806688 -0.056192987 -0.14470673 0.2257507
-0.057527013 0.2651277 0.06581585 -0.1457517 -0.08311633 -0.06364601 0.085008204 0.16326995
0.12797272 0.13882354 0.10984455 0.16945016 -0.018756323 0.24305898 -0.07622712 -0.053311653
0.23559833 0.024704803 0.016300006 0.038389012 -0.30947396 -0.04391732 -0.2313401 0.38366878
-0.2033664 0.043934785 -0.18395524 -0.24036069 -0.08276817 -0.123220675 -0.007446598 -0.0077089868
-0.21734595 -0.03382393 -0.21269695 -0.055901874 0.049015254 0.21130607 -0.03188983 -0.08810057
-0.008398611 -0.0895693 -0.054316096 0.2168229 -0.063070215 0.028219838 -0.012519047 0.08814991
-0.18227828 0.411125 -0.18110155 0.3452187 0.1269059 0.26767653 0.16404901 -0.02270871
-0.044316713 0.040104136 0.012214594 -0.05780457 0.13344058 -0.09493352 -0.02639959 0.2504815
-0.122791335 0.060702935 0.057521112 0.28142184 -0.0189569 -0.18486392 -0.2930153 0.017567921
-0.12611128 0.10621467 -0.11131267 0.02614443 -0.2665624 -0.44493976 0.05243852 -0.06452669
-0.16101512 -0.024184072 0.031215498 0.12888193 -0.1615725 0.31158382 -0.10773191 0.11591162
0.2210713 0.14269347 0.14797914 0.15305541 -0.24719705 0.00024912073 -0.10627913 -0.023490781
-0.09573572 -0.28267044 -0.017069904 -0.42637905 -0.0055276947 0.068306595 -0.04950987 0.07035628
-0.1316988 -0.4984046 -0.02849944 0.11110372 -0.06339915 0.11251529 0.17691295 0.03683515
-0.18395075 0.0856557 0.063982 0.11380549 0.09269603 -0.148314 -0.1708918 0.11687912
0.18390447 0.037680678 0.048300214 0.19580463 -0.0661863 0.014910172 0.03213037 0.32853264
-0.1175219 0.022442462 -0.09923556 -0.11714959 -0.09880228 -0.256407 -0.1891953 0.11065868
-0.06412417 -0.2885708 -0.16991122 0.3061927 -0.14975147 0.27594563 -0.11513924 -0.11092524
-0.08533839 -0.017694063 -0.22102329 0.2322413 -0.17076227 0.032613046 -0.086152986 0.2021092
0.04571908 0.14501013 -0.16614747 0.12490526 -0.21620452 -0.01011342 -0.11330492 0.04298669
0.034253344 0.0498709 0.033460557 -0.01611687 0.2826678 -0.089169435 -0.021023763 -0.1984094
0.23979378 -0.06146287 -0.07074557 -0.31712675 0.021882107 -0.09515763 0.117803596 0.047004826
-0.119167306 0.021004489 -0.16455483 -0.058643673 0.053547632 -0.13947107 0.0821117 -0.437557
0.03514591 -0.22679469 -0.28168705 0.0073792716 0.1720464 0.095517196 0.23583515 -0.29806674
-0.13369116 0.06366114 0.024126442 -0.17073242 -0.051960994 -0.03841881 -0.19074667 0.16960002
0.41039765 0.1798058 -0.06877084 0.21772978 0.16918468 0.15583424 -0.09575227 -0.1843475
0.11320962 -0.042444978 -0.059472084 0.011279537 -0.18789183 -0.039295737 0.15048242 -0.023153143
-0.24765524 -0.23214355 -0.19629832 -0.25342086 -0.16061698 -0.004299898 0.30025482 -0.11910763

model.3.4.weight f4 [64]
00000000: 2f6c c43f 2776 ad3f a308 c53f 0267 de3f
00000010: 762d b63f 9464 bb3f 2986 dc3f 8f10 bc3f
00000020: a4d3 d23f e091 d73f a709 b43f 8307 d73f
00000030: 123e ce3f 3677 a53f eb89 b93f c9dd be3f
00000040: 3400 da3f 1358 b53f ba6b d53f 0dcb ce3f
00000050: ece1 da3f b5a9 d33f a670 cd3f 2054 b03f
00000060: f5f2 c63f 370a d23f 1d41 c43f c0ab cc3f
00000070: 4a29 f03f 7c1a e13f cea6 d03f b309 c23f
00000080: 67a1 bd3f 5a5e ca3f 851b bb3f 8dc3 cc3f
00000090: 7368 e63f d09d dc3f 9760 dd3f f13b ae3f
000000a0: 2228 cb3f 6e5d c23f 6b89 ce3f 4748 be3f
000000b0: 03e1 d53f 3860 cd3f ec1b e53f ad7d c33f
000000c0: 58e1 cc3f 6259 cf3f a96a a73f b24d 0740
000000d0: 2066 d33f 156d b23f ab65 b83f 4535 cc3f
000000e0: 91ca bf3f b264 b63f 6783 e83f a668 c13f
000000f0: 2415 c63f 9df0 c93f 1599 ad3f 5fc7 a73f
1.5345515 1.3551682 1.5393261 1.7375185 1.4232624 1.4640069 1.7228442 1.4692553
1.6470838 1.6841393 1.4065446 1.6799167 1.6112692 1.2927005 1.4495214 1.4911433
1.7031312 1.4167503 1.66735 1.6155716 1.7100196 1.6536165 1.6050003 1.3775673
1.5542895 1.6409367 1.5332371 1.5989914 1.87626 1.7586207 1.6300905 1.515921
1.4814881 1.5810044 1.4617773 1.5997177 1.8000625 1.723566 1.7295102 1.3612043
1.5871623 1.5184762 1.6135687 1.4865807 1.6709293 1.6044989 1.7899146 1.5272728
1.600627 1.6199152 1.3079425 2.1141171 1.6515541 1.3939539 1.4406027 1.5953757
1.4983693 1.424948 1.8165101 1.5110061 1.5475202 1.5776554 1.3562342 1.3107718

model.3.4.bias f4 [64]
00000000: 577a 873e 145a 4d3e c560 9f3e 9e64 ee3e
00000010: 93eb 703e c696 893e 1fc1 aa3e 07f0 ea3d
00000020: 974f a83e 5d28 c93e faad 943e 8910 af3e
00000030: 47d8 fd3e 43ac b83d 8906 163e aab1 9b3e
00000040: 6445 c63e 6bf0 8a3d 4e27 bd3e 9b69 a63e
00000050: f070 c73e 0b0b d33e 46cb a03e abb9 693e
00000060: 960e c03e 448a bb3e f878 a13e 2ab5 8e3e
00000070: 9f6e c53e 1d7e a13e 2830 a83e 697d 583e
00000080: cdbb 4d3e 623a 833e 70d6 853e 52f1 ee3e
00000090: e277 e43e d1ba ab3e c32e bf3e f61a 2a3e
000000a0: 8bb2 933e 63e9 923e 194b 843e 1cb0 343e
000000b0: 6045 b03e 04ae c13e 6bcc d93e 6472 a83e
000000c0: 4bfb b73e ffef ca3e 9d44 663e 8b37 0b3f
000000d0: 6de8 ef3e 16ab 993e e552 3c3e ea91 963e
000000e0: 23e0 a43e d955 663e 3427 cc3e 0f27 2a3e
000000f0: be67 843e 8c91 c93e b23f 583e 0365 643e
0.26460525 0.20053893 0.31128517 0.4656114 0.23527364 0.26872844 0.33350465 0.11471563
0.32873222 0.39288607 0.29038984 0.34192303 0.4957907 0.09017231 0.1465093 0.30408984
0.38724816 0.06784137 0.3694405 0.32502446 0.38953352 0.41219363 0.31405085 0.22824733
0.37511128 0.36628926 0.31537604 0.27872592 0.3856096 0.3154153 0.3284924 0.2114159
0.20091172 0.2563048 0.26140165 0.46668488 0.44622713 0.33540967 0.37340364 0.16611847
0.28847155 0.28693685 0.25838545 0.17645305 0.3442793 0.37828076 0.4253877 0.32899773
0.3593391 0.39636227 0.22487111 0.54381627 0.46857014 0.3001334 0.18390997 0.294082
0.32202253 0.22493686 0.3987366 0.16616462 0.258604 0.39368856 0.21118048 0.22304158

model.3.4.running_mean f4 [64]
00000000: 0afd 99bc 966c a63e f7c7 c33e 18ef 0fbe
00000010: ceeb 4fbe 92c8 a9be 8483 26bf ab10 14be
00000020: 99ca 8cbe 329c 8f3e 8659 28bf 2934 bdbe
00000030: 0f2a b73d 92f8 383e 83d4 f1be f2ae 5cbf
00000040: 088b 433e 0b5c 043d 21d9 e23d 7ac0 06bf
00000050: b015 ecbe bb1b 193e 642c dcbe 5828 56be
00000060: 5ab9 ad3c 7473 2a3d 19b9 a2be 8421 113e
00000070: 73d8 1f3e 80de 993d ce62 ec3a 8adc 953d
00000080: d1b8 ba3e dfbb 85bd 5745 893e 9320 a43e
00000090: 6adf 953e 5457 be3d af7d 04bd a77c 3d3d
000000a0: c6fe 67bd 1c3e 13be 78dc 73bb b18d 0bbf
000000b0: 32a2 db3e 5c96 81bf b217 e5bd af87 543d
000000c0: 4977 2abd b5be e3be 290c 853e 19c6 083f
000000d0: 041a a13c 577d 3cbe dfde e9bd c61f d43d
000000e0: 40c3 763e ead6 4b3e 59f6 1d3e 77d0 023d
000000f0: 177d b73e 2341 b93e 3d59 8cba 85fa 6f3f
-0.018797416 0.3250472 0.382385 -0.14056051 -0.20304796 -0.33160836 -0.65044427 -0.14459483
-0.2749832 0.28048855 -0.657616 -0.36953858 0.08943569 0.18063572 -0.47232446 -0.86204445
0.19096005 0.03231434 0.1107657 -0.52637446 -0.46110296 0.14951985 -0.43002617 -0.20913827
0.021206547 0.04161401 -0.31781843 0.14172941 0.15609913 0.07513142 0.0018034817 0.07317455
0.3646913 -0.06529974 0.26810715 0.32056102 0.29272014 0.09294 -0.032346424 0.046261456
-0.056639455 -0.14379162 -0.0037210267 -0.5451308 0.42897183 -1.0124011 -0.1118616 0.05188721
-0.041617665 -0.44481435 0.2598584 0.53427273 0.019665726 -0.18407188 -0.114194624 0.10357623
0.2409792 0.19906202 0.15426005 0.03193709 0.35837623 0.36182508 -0.0010707747 0.9374164

model.3.4.running_var f4 [64]
00000000: e57e 9a3e 5f69 f63e 92ee 903e 12e0 9d3e
00000010: 4a5d cc3e 5041 8c3e be5a 6a3e c074 aa3e
00000020: 1969 963e c8f0 fd3e d106 103f 0b58 a83e
00000030: b7ba a13e 1dbd db3e 669f b23e a78e b83e
00000040: 210e ff3e 7179 c03e 76d0 4b3f 8323 2a3f
00000050: b03f 6d3e 47f6 b73e 69d8 113f 8443 eb3e
00000060: 3bb8 953e f47b 7c3e 95b8 063f e1ba 353f
00000070: 3544 b53e 95aa d53e a473 9b3e 49d5 1b3f
00000080: 5b3b f93e cf58 653e 63d7 ae3e 45d9 a83e
00000090: 252f c03e 859a 983e e738 da3e 3c55 e13e
000000a0: 4878 ba3e bbd5 c53e 7ece a73e cc1a b13e
000000b0: 9ada 313f 10c2 fc3e 43d1 cb3e df30 9f3e
000000c0: b1ba c33e 40b8 c03e 69c7 cb3e 082c 833e
000000d0: 74bd 113f 1c7e 593e c8a3 e03e 8e85 a33e
000000e0: 24f4 0b3f 5b75 953e c807 253f d8ea e13e
000000f0: c903 293e c392 b73e e732 923e c0fb aa3e
0.30174938 0.48127267 0.28307015 0.30835015 0.39914924 0.2739358 0.22886178 0.33292198
0.29377058 0.49597764 0.562604 0.3287967 0.31587765 0.4291772 0.34887236 0.36046335
0.49815467 0.37592652 0.7961496 0.66460437 0.23168826 0.35930082 0.5697084 0.45949948
0.2924212 0.2465666 0.526254 0.7098828 0.354036 0.41731706 0.30361664 0.6087232
0.48678097 0.22397159 0.34148702 0.32978263 0.37535968 0.2980539 0.42621538 0.4401034
0.36419892 0.38639626 0.3277473 0.34590757 0.69474185 0.49366808 0.39808092 0.31091973
0.38228372 0.37640572 0.39800575 0.2561953 0.5692971 0.21239513 0.43874955 0.31937832
0.54669404 0.29191098 0.64465 0.44124484 0.1650535 0.35854158 0.2855446 0.33395195

fc.weight f4 [47, 64]
00000000: 2603 09bf e27f 21bd a945 2b3c e4fe b2be
00000010: 9751 483d 53f9 56be b400 e13c fda9 823e
00000020: 286b 053e fe1b afbd 84d1 4ebe e608 3bbe
00000030: 6975 31be e24f 8d3d 51b3 7f3e 6ac3 b13c
00000040: 2f8e 683e 022d ee3d 461c a13e f488 6fbd
00000050: 29c5 38be 045c c23e 23e3 943e 7024 073e
00000060: e5e5 cebe 3569 07bf a5ae 793d 390f e23e
00000070: 0da3 fc3c d2b6 463e d7f3 40bf db80 f73d
00000080: f7ce e83b 5b70 8cbe 1af6 053f f507 52be
00000090: 0877 d6bc 7414 04bf c29f 11bf 3162 85be
000000a0: 0af4 0a3c a2aa 64bd 05f0 c23e 8dd8 b33d
000000b0: 91bb fd3d 2819 80be 81e9 ddbe a192 8ebe
000000c0: ab96 d7bc 38e9 353e 6c02 b33e 8c0f 33bf
000000d0: 9a9a 103e 32d8 afbd b5b6 11bc 3eef f73d
000000e0: 40d9 b83e fa4c be3c 1996 9d3e 04f2 ae3e
000000f0: 4048 2ebe 9e24 ffbe 923d 77be 2c65 4e3e
00000100: bf15 c93d de1a 9fbe dd9e 96be 771a 71be
00000110: 6dc6 743d f2b6 c53c d99b 1dbf 5e40 863d
00000120: 9ef4 5cbe 7959 88ba b18f 66be 55ba 1a3e
00000130: d6d3 6a3d 48e3 bfbb a5a9 30be 7edc 663d
00000140: 72bd e2be 1a76 f0be 6575 83bd fec7 963d
00000150: f0c0 8cbe 563e e2be c12f 3dbe b7ec 5f3e
00000160: 5aee 553d efcc 843d 8d16 97be 93d7 aebe
00000170: d614 b6be 51bd df3d b345 babe 0201 40be
00000180: 5a84 7ebe 2b19 92be ebac 94bd e90a 55be
00000190: 3f22 71bd ddbf 00bf 0edf 70be e416 07bc
000001a0: 920c 72bd 8cda b43b 092d b5be 36aa 233d
000001b0: d4fb a2be d355 6ebe 41f0 95bd ce53 fb3d
000001c0: a20c 8d3e 74eb b9be 7a24 65be 6283 283d
000001d0: 48c4 523d 8b79 023e 33b9 e4be c9b1 3cbd
000001e0: 7a23 1ebd 969b b8be df5e 2dbe 01cf e5be
000001f0: 2105 563e 692a 90bd a29a 9bbc 1484 533e
00000200: 80a0 8dbe 1fa7 4abe 9605 1dbe f43f acbe
00000210: 0b8f 38be a8cc 07be a8e8 debd dec3 1cbe
00000220: c90c 76be 1fba 74bd 1f65 9cbd 0b8f 21be
00000230: 6a47 0f3d fbc6 9ebd bf6e c3bc 1bea 85be
00000240: 36d5 96be 22c1 acbe ac53 47be b31f c3be
00000250: af99 8dbe 2c78 1fbe e6dc a4be 8efb 5dbd
00000260: 499b a3bd 3ae8 823d b74a bdbe 7346 19be
00000270: 406f f3bd 3f85 98be 5162 d83d 1eaa bcbe
00000280: c19c ae3c e940 d23d 67c2 ecbc eef1 76be
00000290: 1d75 1bbe 6199 8abe 665d a6be 62ce b0bd
000002a0: 2084 97be 6b14 c8be 7522 b6be 38a8 8fbe
000002b0: cd8d 27be b226 6abe 51ff 47be 9e0c 33be
000002c0: b8ae 37bd 94e4 8bbd 87f3 96bc cf80 a8be
000002d0: e20f 2abe 612b 15bd d559 bdbe d5dc c5be
000002e0: 1650 a4be 7617 b63b 834b 2abe f9a1 90be
000002f0: e096 70bc 95bc 683d 6619 26be f938 27be
00000300: 33dc 20be 519c aabe 6ff7 58be 8b01 48be
00000310: d700 d8be 39e3 cfbd 4f49 05be d2b0 57be
00000320: d482 cebe 367c 363d 3092 9dbc 856a 77be
00000330: 0424 9ebe 34a8 c0ba 815f c8bc 3b69 73bd
00000340: 64d7 31bd 8019 37be 0d44 593d 42b3 bdbe
00000350: 1733 e7be 00c9 b2be a1b8 74be efad 6abe
00000360: 44af e4be 71fd 78be f8fd 93be 7fc5 88bd
00000370: 27ae fc3d dea7 45be cd73 6ebe 5986 58be
00000380: 9a72 fd3d c381 f4bd feae 12be 7114 05be
00000390: 3481 ffbd bf3f c3be e9ab 36be 9151 4bbe
000003a0: c0aa 82be 52e7 97be 9ff2 843d 5ebc aebe
000003b0: a12d a3bd a8df 06bd 50db c1bd f913 1dbe
000003c0: fcec c03d 8209 babe 382b 68be 1ca3 31bb
000003d0: 28fb 11be 5dcd 7dbd 50f4 11be 4b58 dcbd
000003e0: 0f7a 78be b0bd a2be 68ab 1abe f2d9 cdbe
000003f0: 41e4 cbbd 0066 ed3c b975 5dbe c9f3 44be
-0.5352043 -0.0394286 0.01045362 -0.3496009 0.048905935 -0.20993547 0.027466156 0.25520316
0.13029158 -0.08550261 -0.20197111 -0.18265113 -0.17329945 0.06900002 0.24970748 0.021699626
0.22710489 0.11629678 0.31466883 -0.058480218 -0.1804396 0.37960827 0.29079542 0.13197494
-0.4040977 -0.5289491 0.06095757 0.4415224 0.030839467 0.19405678 -0.7537207 0.12085124
0.0071047503 -0.2742947 0.52328646 -0.20510848 -0.026179805 -0.5159371 -0.56884396 -0.26051477
0.008481035 -0.05582679 0.38073745 0.08781538 0.12389291 -0.25019193 -0.43342212 -0.27846244
-0.026316961 0.17764747 0.34962785 -0.699456 0.14121476 -0.08586158 -0.008893658 0.12106179
0.3610325 0.023230065 0.30778578 0.34169018 -0.17019749 -0.49832624 -0.24144581 0.20155782
0.09818601 -0.31075186 -0.29418078 -0.23545252 0.059759546 0.024135087 -0.6156593 0.06555246
-0.21577689 -0.0010402641 -0.22515751 0.15110143 0.05733093 -0.0058559515 -0.17252214 0.05636262
-0.4428516 -0.46965104 -0.064188756 0.07362364 -0.2749095 -0.44188184 -0.18475248 0.21867643
0.052229263 0.064844005 -0.29509392 -0.34148845 -0.35562772 0.10924781 -0.363813 -0.18750384
-0.24855176 -0.28534827 -0.07259544 -0.20804943 -0.05887055 -0.5029276 -0.23522589 -0.008245204
-0.05909402 0.005519217 -0.35385922 0.039957248 -0.31832755 -0.23274927 -0.073212154 0.12271844
0.275487 -0.3631245 -0.22377196 0.04114092 0.05145672 0.12741677 -0.44672546 -0.046067987
-0.03860805 -0.36056203 -0.16930722 -0.44884494 0.20900394 -0.07039339 -0.018994633 0.20655853
-0.27661514 -0.19790314 -0.15334162 -0.33642542 -0.18023317 -0.13261664 -0.108842194 -0.15309092
-0.24028315 -0.05974781 -0.07636475 -0.15777223 0.034980215 -0.07752796 -0.023856519 -0.2615517
-0.29459542 -0.337411 -0.19465512 -0.38110122 -0.27656314 -0.15573186 -0.32199782 -0.05419498
-0.07988603 0.0639195 -0.36971065 -0.1496828 -0.11886454 -0.2978916 0.10565627 -0.3684854
0.02131498 0.10266287 -0.028901292 -0.24115726 -0.15181394 -0.27070144 -0.32493132 -0.086331144
-0.2959299 -0.39078078 -0.35573164 -0.28058028 -0.16362686 -0.22866324 -0.19530989 -0.17485282
-0.04484436 -0.06830707 -0.01842667 -0.32910773 -0.16607621 -0.036418322 -0.369826 -0.38645044
-0.3209235 0.005556996 -0.16630368 -0.28248575 -0.014684409 0.05682047 -0.16220626 -0.16330327
-0.15709 -0.33322385 -0.21188138 -0.19531839 -0.4218814 -0.10150761 -0.13016246 -0.21063545
-0.4033419 0.04455205 -0.019234747 -0.24161728 -0.30886853 -0.0014698566 -0.024459602 -0.059426527
-0.043418303 -0.17880821 0.053043414 -0.37050825 -0.45156166 -0.34918976 -0.23898555 -0.22917913
-0.44664967 -0.2431543 -0.289047 -0.066782944 0.123379044 -0.19302318 -0.23286362 -0.21145
0.12375374 -0.119388126 -0.14324567 -0.12996079 -0.124758154 -0.38134572 -0.17839016 -0.19855334
-0.25520897 -0.2966867 0.06491589 -0.34128088 -0.079676874 -0.03292814 -0.09465659 -0.1533965
0.09420201 -0.3633538 -0.22672737 -0.0027105277 -0.14255965 -0.061963428 -0.14253354 -0.10759028
-0.24265312 -0.31785345 -0.15104449 -0.40205342 -0.09955645 0.028979301 -0.21626939 -0.19233622

fc.bias f4 [47]
00000000: 4154 593d b9bb b1bd 4445 07be 9091 4cbe
00000010: da35 4cbe e68b a6bb 73b1 d1bd 3120 1bbd
00000020: 0828 44be a7ec efbd 7ec8 3bbe 980c 2a3d
00000030: 3071 84bd e227 a33d f8b5 2bbe 3013 7f3d
00000040: 42dc 4cbe cdee f2bd 9d78 25be 4dfb 1bbe
00000050: fc63 25be 3658 d7bb 8a81 09be ca4d 8ebd
00000060: 7906 0d3e a97e 20be e491 993b 9340 0ebd
00000070: a3f1 b43d c096 12be e73c 0fbe f839 02be
00000080: 464a 083d f53a 20be 6ed3 fabd 1e00 00be
00000090: cd86 ffbd fb0d 9f3d 8c5c 91bd 3af9 e73d
000000a0: e866 a03e 3e07 3ebe 8655 113d e34b 5a3e
000000b0: 13b0 8a3d 343e 32be 5321 b2bd
0.053058866 -0.086783834 -0.13210016 -0.19977403 -0.19942418 -0.005082595 -0.10238924 -0.037872497
-0.19155896 -0.1171506 -0.183382 0.041515917 -0.06466901 0.079665914 -0.16768634 0.062274158
-0.20005897 -0.11861954 -0.16159292 -0.15232582 -0.16151422 -0.006571795 -0.13428321 -0.06948431
0.13772 -0.15673317 0.004686581 -0.03472955 0.08835151 -0.14315319 -0.13988076 -0.12717426
0.033273958 -0.1564749 -0.12247358 -0.12500045 -0.12476883 0.077663384 -0.0709773 0.11326833
0.3132851 -0.1855745 0.035481952 0.21318011 0.06771865 -0.17406541 -0.08697762

exp_avg f4 [32, 3, 3, 3]
00000000: 922c 9c3b 3258 923b 8fb2 883b 24b2 a23b
00000010: 3b1f 9c3b 65a7 8f3b 5572 a23b 2bef a13b
00000020: 9de0 953b a237 6c3b 305d 513b f13b 383b
00000030: b3d1 7c3b ea92 683b b80d 4a3b 8bd7 7e3b
00000040: 2ce9 773b 96e2 5a3b 7895 3c3b 9b34 203b
00000050: bbe9 093b 4fec 503b 73f2 3a3b 3c46 1e3b
00000060: 7dfd 593b 87f7 4f3b c111 343b 278c 8239
00000070: 16c4 b339 d485 d939 f248 6339 07ec 9139
00000080: 5347 b839 0710 2539 c5ba 3e39 46dd 6139
00000090: aadf 4239 f7bd 9639 4ddd cf39 1506 0e39
000000a0: 821d 5739 6f99 a639 a26f b238 58a3 f438
000000b0: e83d 4239 3ae4 4e38 bdfa 2939 51fd 9139
000000c0: cb73 5536 f1f8 ad38 7504 5439 e823 23b8
000000d0: ff57 a332 c842 9c38 4d2a 503b ea70 413b
000000e0: 4376 413b 0fb3 393b 4923 323b ffaf 393b
000000f0: 0238 3a3b bf71 403b 7a82 4c3b 4413 3a3b
00000100: 72c5 2e3b e060 283b ea9e 363b 1f14 303b
00000110: 80ee 2d3b fdea 373b 76d4 3b3b 6f24 3b3b
00000120: e0f0 e2b9 3d1b 1dba 165d 33ba 004f 11ba
00000130: bbc6 2cba 0dc7 33ba 7d56 0cba 4064 02ba
00000140: 88ba 07ba 1ea1 79bb 744d 73bb 30ca 60bb
00000150: 59d2 7abb 6456 78bb 1a73 64bb baca 6ebb
00000160: 6ffd 6ebb 73ef 5abb 268b 85bb 65a2 80bb
00000170: 4dcb 66bb 7467 86bb 2f81 83bb 857a 6abb
00000180: 752e 7fbb 0534 7cbb a8dd 61bb e3c8 83bb
00000190: eb00 7cbb b71d 6bbb a6ef 83bb e217 7fbb
000001a0: 91f1 6abb 3c9e 80bb 0ef0 79bb 256a 65bb
000001b0: a0e8 0a3b 340c b43a e059 1c3a 3c08 ee3a
000001c0: 606a a63a f52e 553a 23ec ae3a a594 893a
000001d0: ade2 863a 6754 ac3a 4c03 043a 3dbc b4b9
000001e0: a43b 853a bf5c f139 ec9b 54b8 3db7 093a
000001f0: 4729 7e39 f3cb 6839 5ed9 e837 d0f9 25ba
00000200: b0ed b0ba 735e 5bb9 587d 1eba eb7d 8bba
00000210: 916e 29ba a8ac 4bba 05fa 57ba 916b 5c3a
00000220: 6922 493a fe12 543a 33be 4e3a 5283 323a
00000230: 861b 3e3a 75b4 543a 4145 333a 69ae 353a
00000240: fa24 08ba 1b83 18ba 6369 04ba 662d 0eba
00000250: eeba 27ba 906a 10ba ca4a f6b9 d55b 15ba
00000260: e88d 08ba 8552 a8ba a733 b0ba 9e8b a1ba
00000270: e75a afba e548 baba 948b a8ba f1da a2ba
00000280: dfdc acba b144 9fba c320 fc38 2cdf ec38
00000290: 663c cf38 b62f 8538 70a4 5838 8817 a138
000002a0: 22e8 3a39 3908 6439 b6e9 4139 e4bd 04ba
000002b0: 9fe6 06ba ce65 06ba 57c1 15ba eb15 14ba
000002c0: bc37 05ba 7e6b efb9 1056 c7b9 7651 c6b9
000002d0: b3a7 fdba d658 feba cc6c f5ba 3cc1 02bb
000002e0: 35c8 02bb 79cc f5ba 90c5 f2ba b4c1 eaba
000002f0: 8089 e4ba 974b 8d39 5c3a 8a39 fc45 7739
00000300: 054c feb7 c358 01b9 b211 8138 50b8 9ab8
00000310: 3689 d0b9 3176 8fb9 c6d8 9f3a 8589 a43a
00000320: f7fa 9d3a 478d 843a da8a 6e3a 427e 8a3a
00000330: 0b08 803a 07c3 213a d6ce 363a e915 a33a
00000340: ea2d a83a dddc a23a ab8d 8a3a 6c8d 7a3a
00000350: d105 903a e140 863a 8021 2f3a eab0 463a
00000360: a57c 483b e1de 543b 3b9e 573b 3303 523b
00000370: 34c5 5f3b 1b06 5f3b 5a8d 523b 0a4d 5f3b
00000380: a0d7 5b3b da90 f63a 1cff fd3a 7b39 f93a
00000390: 12f0 073b 3490 0c3b 1ac2 053b 5cae 0d3b
000003a0: 6a72 113b b999 073b dec7 d13a f371 e53a
000003b0: d6fb ed3a 536b ec3a d53a 013b 3442 013b
000003c0: 7922 fb3a 330b 073b 83a9 033b 3126 c73a
000003d0: 7f90 c93a 850c d73a 8308 c63a 3c2b b93a
000003e0: b3e5 cc3a 7c63 be3a bde8 a93a e7f8 ae3a
000003f0: 48bf 133b 77d8 143b c16e 1d3b 5c55 123b
0.0047660554 0.00446608 0.0041716765 0.0049650837 0.004764465 0.0043839687 0.004957477 0.004941841
0.004573895 0.0036043902 0.0031946413 0.00281119 0.003857714 0.0035487958 0.003083093 0.0038885798
0.003782819 0.0033399216 0.0028775614 0.0024445418 0.0021043855 0.0031879132 0.0028525859 0.002415075
0.0033262663 0.003173323 0.0027476402 0.00024899954 0.00034287636 0.00041489175 0.00021675581 0.0002783241
0.00035148356 0.00015741597 0.00018189389 0.00021540103 0.00018584603 0.00028751764 0.00039647 0.00013544441
0.0002051499 0.00031776304 8.508495e-05 0.00011665252 0.00018524344 4.932678e-05 0.00016210503 0.0002784529
3.1806874e-06 8.295652e-05 0.00020219556 -3.889567e-05 1.9015713e-08 7.451099e-05 0.0031763494 0.0029516765
0.0029519952 0.0028335487 0.0027181676 0.0028333662 0.002841473 0.0029364673 0.00312057 0.002839283
0.002666798 0.0025692508 0.0027865716 0.0026867462 0.0026539862 0.0028063648 0.0028660572 0.0028555652
-0.00043285545 -0.00059931335 -0.0006842179 -0.0005543083 -0.00065908924 -0.0006857969 -0.0005353464 -0.0004974045
-0.00051776366 -0.0038090418 -0.0037125023 -0.00343002 -0.003827235 -0.003789329 -0.0034858645 -0.0036436752
-0.0036466976 -0.0033406883 -0.0040754257 -0.003925609 -0.0035216392 -0.004101688 -0.0040132026 -0.0035778594
-0.0038937603 -0.0038483154 -0.0034464393 -0.0040217503 -0.0038452696 -0.0035875866 -0.004026371 -0.0038924147
-0.0035849551 -0.003925113 -0.0038137469 -0.0035005894 0.0021195784 0.0013736547 0.000596432 0.0018160413
0.0012696497 0.00081323023 0.0013345521 0.001049657 0.0010290943 0.0013147712 0.00050358917 -0.00034472524
0.0010164869 0.00046036203 -5.0689952e-05 0.000525344 0.00024238705 0.00022201221 2.7757775e-05 -0.00063314755
-0.0013498571 -0.00020920653 -0.00060458994 -0.0010642385 -0.0006463314 -0.0007769563 -0.0008238855 0.00084083626
0.0007672669 0.0008089988 0.0007886618 0.00068097294 0.0007252026 0.00081140484 0.0006838628 0.0006930591
-0.0005193498 -0.0005817876 -0.0005051104 -0.0005423635 -0.0006398399 -0.0005509043 -0.000469765 -0.0005697583
-0.0005209134 -0.0012841976 -0.0013443128 -0.0012324934 -0.0013378531 -0.0014212398 -0.001285898 -0.0012424869
-0.0013188383 -0.0012151209 0.00012022399 0.00011294926 9.881779e-05 6.350821e-05 5.1651557e-05 7.681461e-05
0.00017824818 0.00021746838 0.00018492978 -0.00050636963 -0.00051460596 -0.00051268644 -0.0005712709 -0.0005649018
-0.00050818524 -0.0004566572 -0.0003802036 -0.00037826196 -0.0019352346 -0.0019405137 -0.0018724441 -0.0019951602
-0.0019955758 -0.0018752954 -0.0018522013 -0.0017910511 -0.0017435998 0.00026949935 0.00026364892 0.00023581827
-3.0314559e-05 -0.00012335465 6.154495e-05 -7.377623e-05 -0.00039775082 -0.00027363145 0.0012195341 0.0012553191
0.0012052943 0.0010112905 0.000909967 0.0010566192 0.0009768022 0.0006170724 0.000697357 0.0012442443
0.0012831066 0.0012425442 0.0010570785 0.00095578167 0.0010988062 0.0010242724 0.0006680712 0.0007579463
0.0030591872 0.003248148 0.003290071 0.0032045364 0.0034144642 0.0034030739 0.003212771 0.0034073018
0.003354527 0.001881148 0.0019378397 0.0019014323 0.0020742458 0.0021448256 0.0020409883 0.002161882
0.002219344 0.002069099 0.0016005 0.0017505273 0.0018156718 0.0018037356 0.0019718905 0.0019723298
0.0019160054 0.002060604 0.002009005 0.0015193877 0.0015378146 0.0016406929 0.0015108738 0.0014127265
0.001563242 0.0014525498 0.0012963038 0.0013349325 0.0022544432 0.002271203 0.0024022313 0.002232871
